best_model_ZSSR.pth (torch, 896838 bytes, 15 tensors)

conv0.weight f4 [64, 1, 3, 3]
0.17636648 0.2518317 -0.11337366 -0.21241577 -0.29359934 -0.15885787 0.012237674 0.1480642
-0.2655126 0.0009197058 -0.023885848 0.032684166 -0.332984 0.034837443 0.22102384 -0.2521729
-0.23058191 -0.23417073 0.014248923 -0.04089555 -0.1315424 -0.3424486 -0.25145108 0.20698422
0.17923915 0.11256911 -0.25907004 0.075233236 -0.29066977 0.25977167 0.33769 0.330196
0.22566402 -0.03980484 0.13232622 -0.12559718 -0.23834707 0.09383377 0.17414199 0.25484383
-0.15921247 -0.17650342 -0.14494789 -0.022940345 -0.07631087 -0.20556498 0.31261846 0.16355425
-0.14285147 0.07963287 0.22804485 -0.012493823 -0.17036174 -0.272861 -0.15845954 0.29470757
-0.25728482 -0.16343261 -0.21621752 0.06315911 0.03784368 -0.10682503 0.13894546 -0.063700385
0.020413898 -0.15161696 0.28985095 0.08235445 -0.2523515 0.13445672 0.3335409 -0.11660543
0.14262122 0.09074712 -0.15704566 0.09311089 -0.04093832 -0.22937031 -0.12918651 0.29676893
0.14961517 -0.032949664 -0.0539107 -0.19463074 -0.26621345 0.030413829 -0.19507201 0.19989386
0.12921092 0.31296933 -0.23882349 0.25262868 -0.15883541 -0.079958506 0.01079656 -0.044393692
0.012651836 0.14055644 0.11727319 0.008113226 -0.02647551 -0.09058615 -0.29841167 -0.08297865
-0.3171577 -0.038689535 0.13991825 -0.01860857 -0.004667524 -0.27399108 -0.23660563 -0.16306774
-0.07964437 -0.124336414 -0.16187418 0.26240844 0.24588892 -0.18527405 -0.21245272 -0.22710483
-0.031668402 -0.046314362 -0.32388946 0.17655069 -0.16475151 -0.104135774 -0.35750982 0.055070788
0.2522305 0.024938678 0.11555685 -0.28258917 -0.02025394 -0.15603483 -0.029143568 -0.011718711
-0.0842013 0.089856386 0.28754228 -0.13260715 -0.16235778 -0.06604111 0.12556872 0.14610338
0.26730907 -0.27486962 0.30790967 0.018771812 -0.25262344 0.04551401 -0.25654367 -0.09029606
-0.27352744 0.20920177 -0.27822116 0.047471832 -0.07441409 0.09831542 0.06553911 0.117992125
-0.08654609 -0.06981577 0.28904837 -0.17987709 -0.053688806 -0.21941964 -0.14681312 -0.097563945
-0.12798986 -0.054786682 0.10755889 -0.24750118 0.13737369 -0.05537022 -0.3285107 -0.07278743
-0.031005792 -0.04079319 0.18636431 0.2713793 0.06302038 0.046946205 -0.024222037 0.22695048
0.17706883 0.2628949 0.29517686 0.26462325 0.2057127 0.06828312 -0.2545754 -0.15175822
-0.30352208 -0.27678093 -0.25698045 -0.080147326 0.016407456 -0.048730563 0.256048 0.08041637
-0.043474317 -0.05833437 0.27905908 0.10746249 0.16476262 0.0008326828 0.09834724 -0.10897289
0.05189134 0.21296093 -0.08313837 0.2580393 0.26621166 -0.13418318 -0.00339085 0.31978643
0.21698044 0.3342013 -0.22190662 0.12576503 0.24044691 -0.25063723 -0.15130162 -0.17515726
-0.29759002 -0.12429113 0.114216596 0.3014534 -0.05819312 -0.11298152 -0.012603463 0.27049014
0.14428599 0.10130391 0.18326938 -0.3215864 0.1130098 -0.0019707363 -0.3108761 0.10984786
-0.19966505 -0.041569527 0.21575893 -0.09112081 -0.11169608 0.25353107 0.28882957 -0.15734991
0.044917893 0.24389541 -0.18285252 -0.20951569 0.30538687 0.10833872 0.12264103 0.06318526
00000000: 6a99 343e 16f0 803e 7330 e8bd 8583 59be
00000010: a752 96be a3ab 22be 8680 483c 249e 173e
00000020: 44f1 87be 6918 713a 41ac c3bc d5df 053d
00000030: e17c aabe b5b1 0e3d 1354 623e ce1c 81be
00000040: aa1d 6cbe 74ca 6fbe 5174 693c 1882 27bd
00000050: 0db3 06be 6c55 afbe 32be 80be acf3 533e
00000060: 788a 373e a28a e63d d4a4 84be e213 9a3d
00000070: abd2 94be cb00 853e b4e5 ac3e 730f a93e
00000080: 7814 673e 660a 23bd 8680 073e 8c9c 00be
00000090: 4111 74be eb2b c03d 4752 323e e47a 823e
000000a0: 9808 23be 50bd 34be 386d 14be 64ed bbbc
000000b0: e048 9cbd a07f 52be 870f a03e c47a 273e
000000c0: a847 12be 8f16 a33d 9784 693e e4b2 4cbc
000000d0: 4f73 2ebe 70b4 8bbe 3843 22be e9e3 963e
000000e0: d6ba 83be e15a 27be 2068 5dbe 9059 813d
000000f0: f901 1b3d 15c7 dabd b847 0e3e 5975 82bd
00000100: 0c3b a73c 7a41 1bbe 5867 943e 73a9 a83d
00000110: 3734 81be 06af 093e dfc5 aa3e d4ce eebd
00000120: 4c0b 123e a0d9 b93d 94d0 20be ecb0 be3d
00000130: f1ae 27bd 0de0 6abe 7849 04be 19f2 973e
00000140: b834 193e 3af6 06bd 77d1 5cbd 484d 47be
00000150: 214d 88be 6c26 f93c f5c0 47be fab0 4c3e
00000160: de4f 043e 843d a03e 258e 74be 8c58 813e
00000170: c0a5 22be 49c1 a3bd 0ee4 303c 29d6 35bd
00000180: a549 4f3c 07ee 0f3e ed2c f03d 56ed 043c
00000190: 2be3 d8bc 3b85 b9bd 6ac9 98be b6f0 a9bd
000001a0: 7e62 a2be eb78 1ebd bb46 0f3e 0071 98bc
000001b0: 07f2 98bb 8f48 8cbe bf48 72be 3bfb 26be
000001c0: 961c a3bd 17a4 febd 58c2 25be 665a 863e
000001d0: 4eca 7b3e 7bb8 3dbe 358d 59be 2b8e 68be
000001e0: bab6 01bd 21b4 3dbd d7d4 a5be b4c9 343e
000001f0: 9fb4 28be 2345 d5bd 870b b7be e891 613d
00000200: 5b24 813e 334c cc3c 12a9 ec3d 87af 90be
00000210: 97eb a5bc 98c7 1fbe 7ebe eebc d6ff 3fbc
00000220: bb71 acbd a006 b83d be38 933e 2bca 07be
00000230: 1e41 26be 9040 87bd 1695 003e 209c 153e
00000240: bcdc 883e b6bb 8cbe 56a6 9d3e 58c7 993c
00000250: dc57 81be e66c 3a3d b159 83be 24ed b8bd
00000260: ca0b 8cbe fd38 563e 0173 8ebe d371 423d
00000270: 6a66 98bd 9859 c93d 5e39 863d dba5 f13d
00000280: 143f b1bd 92fb 8ebd 26fe 933e b331 38be
00000290: cbe8 5bbd 8baf 60be 2e56 16be 9bcf c7bd
000002a0: c60f 03be 0068 60bd d647 dc3d f370 7dbe
000002b0: b0ab 0c3e e2cb 62bd 8e32 a8be 9311 95bd
000002c0: dcff fdbc c316 27bd 49d6 3e3e 3af2 8a3e
000002d0: d410 813d aa4a 403d 4b6d c6bc b565 683e
000002e0: 8851 353e 299a 863e 6c21 973e b37c 873e
000002f0: 5aa6 523e 05d8 8b3d b557 82be 8266 1bbe
00000300: 3f67 9bbe 3bb6 8dbe f192 83be 4824 a4bd
00000310: ee68 863c b399 47bd b918 833e 56b1 a43d
00000320: 2012 32bd 05f0 6ebd d5e0 8e3e 4b15 dc3d
00000330: 88b7 283e 6648 5a3a 476a c93d 2e2d dfbd
00000340: 048c 543d 6e12 5a3e 7344 aabd ba1d 843e
00000350: e54c 883e 5167 09be 0639 5ebb 0cbb a33e
00000360: 1f30 5e3e 6f1c ab3e 7d3b 63be 8cc8 003e
00000370: b737 763e 8653 80be d0ee 1abe 6d5c 33be
00000380: b85d 98be 598c febd 64ea e93d 1a58 9a3e
00000390: e95b 6ebd db62 e7bd c17e 4ebc af7d 8a3e
000003a0: b5bf 133e 6d78 cf3d f8aa 3b3e f9a6 a4be
000003b0: af71 e73d 7827 01bb 272b 9fbe eaf7 e03d
000003c0: ff74 4cbe cf44 2abd e9ef 5c3e 8c9d babd
000003d0: eac0 e4bd d3ce 813e 78e1 933e 5620 21be
000003e0: d3fb 373d b8bf 793e b13d 3bbe 488b 56be
000003f0: ab5b 9c3e b1e0 dd3d 382b fb3d 4667 813d

conv0.bias f4 [64]
0.17691699 0.08555001 0.19696249 -0.29015353 0.086072624 0.006273479 0.07046698 -0.25332758
-0.0062551517 0.023048569 0.09561733 -0.16065645 0.26457018 0.12399107 0.09050977 -0.2533736
0.13001771 0.13555932 -0.15617403 0.089583606 0.005544114 0.22438005 -0.19823016 0.011020201
-0.038023107 -0.20628437 0.04733587 0.24919881 -0.010539134 0.024224283 -0.10010415 -0.20846015
0.2187641 -0.16230138 -0.0029076687 0.21291031 0.2755173 0.1956739 -0.063934594 0.045183126
-0.12289971 0.27168778 0.17119622 0.13211766 0.02393537 -0.21236822 0.29954848 -0.16039772
-0.012083519 0.28354582 -0.0028221158 -0.0015227504 -0.31962594 0.008630564 -0.25806227 -0.20372622
-0.03690442 -0.3060606 -0.0014501794 -0.17126922 -0.14581996 0.14035182 -0.30731604 0.19892885
00000000: ba29 353e d834 af3d 89b0 493e 018f 94be
00000010: d846 b03d c291 cd3b fe50 903d 27b4 81be
00000020: 04f8 ccbb 5ad0 bc3c 05d3 c33d 2083 24be
00000030: be75 873e 08ef fd3d 305d b93d 2fba 81be
00000040: 5d23 053e 10d0 0a3e 16ec 1fbe 9c77 b73d
00000050: 66ab b53b e2c3 653e d9fc 4abe 138e 343c
00000060: 1ebe 1bbd 363c 53be 42e3 413d f92d 7f3e
00000070: 55ac 2cbc 0172 c63c 6803 cdbd 9476 55be
00000080: b203 603e 5532 26be 968e 3ebb 2905 5a3e
00000090: 9b10 8d3e bd5e 483e 24f0 82bd f111 393d
000000a0: d8b2 fbbd a91a 8b3e 104e 2f3e da49 073e
000000b0: 1c14 c43c 0e77 59be 6b5e 993e 4d3f 24be
000000c0: f4f9 45bc eb2c 913e 3ff3 38bb 0697 c7ba
000000d0: 03a6 a3be 3667 0d3c bd20 84be 9b9d 50be
000000e0: 1729 17bd fab3 9cbe f213 beba 3361 2fbe
000000f0: d451 15be 63b8 0f3e 8758 9dbe 01b4 4b3e

conv1.weight f4 [64, 64, 3, 3]
0.034663703 0.04699169 0.025787404 -0.027379908 0.05069746 0.004929631 0.01813477 -0.013477481
0.034604497 -0.09368583 -0.09963007 -0.0583273 -0.104067296 -0.10594583 -0.09596902 -0.11504196
-0.06306706 -0.11998332 -0.0038885782 0.0143251 0.052484483 0.03684805 0.04395474 -0.0066399197
0.007284169 -0.026626568 -0.02763391 0.009584358 -0.037953693 -0.075622216 -0.02128714 -0.04083581
-0.084869295 -0.030061241 -0.07361012 -0.07105933 -0.01796762 0.027054505 0.00816204 -0.039766025
-0.008140928 0.03564357 0.012136782 -0.041016933 0.02675672 -0.037539937 0.0028834813 0.012999661
-0.025545245 0.008874077 -0.020188438 0.017826255 -0.010793036 -0.07625575 0.06335234 0.04767162
-0.012192531 -0.004695394 -0.0321773 0.032509036 0.021712443 0.023692396 0.013379596 -0.053781297
-0.0019772523 -0.09655989 -0.05186776 0.0021557943 -0.10589481 0.034455378 0.24736503 0.09912348
0.015706563 0.015526555 0.02066263 -0.032834172 0.02939341 -0.017247215 0.031756785 0.032669157
-0.013177668 0.035010103 -0.032578047 -0.027563859 0.0058875238 0.043525666 0.041706406 0.03537708
0.005739204 0.02692723 -0.016571235 0.008959613 0.036482807 0.0023780274 -0.039462823 0.03759041
-0.010344588 -0.007987337 0.030315079 0.019035589 0.03556382 -0.008843228 0.020646265 -0.005457565
0.033939045 0.037509184 -0.023402017 0.03357444 0.038493626 0.050284956 0.026177306 0.0016841249
0.048788246 -0.02648135 0.038289577 0.038434636 0.025587428 -0.07125109 -0.09627369 -0.12148918
-0.13919374 -0.15794492 -0.10702547 -0.10505246 -0.13600683 -0.16324298 0.023720417 0.0177346
0.05637403 0.024211766 -0.03412559 0.004356532 0.038839795 -0.014760135 -0.030036256 -0.0060511483
-0.010467326 -0.016339332 0.010274882 -0.029783662 0.024329355 0.04022351 -0.038584482 0.013218398
-0.016706923 -0.031298324 0.03903723 -0.008584607 -0.02386552 -0.0118802935 0.05292607 0.033034697
0.02526407 -0.026546894 0.009568413 -0.011150904 -0.012768817 0.0075835073 0.010153954 -0.03781041
0.0011241549 -0.039870065 0.023896769 0.033232287 0.010697177 -0.04079839 0.0049346536 -0.022021841
-0.009763708 -0.0067213876 0.030386891 0.0029813307 -0.0009874282 0.005894867 -0.015180018 -0.020672372
-0.019455463 -0.025842892 -0.012855045 0.0204402 -0.022524888 0.0041615376 -0.0009825684 -0.00802228
-0.017583188 -0.008950791 -0.015770946 -0.0015043466 -0.014688323 -0.022124361 0.03597908 0.04558092
-0.020963505 -0.047148447 -0.030667718 0.021898324 -0.05832295 0.027976418 0.0056419536 -0.032667473
-0.03143775 -0.0135726305 -0.0916895 -0.071221225 -0.08594397 -0.026875209 -0.05766945 0.013265644
-0.041039027 0.0033542353 -0.00642018 0.030461473 -0.057874624 0.033011492 0.000697012 0.0051199486
-0.13527758 -0.05467513 -0.028642034 -0.18891892 -0.06712709 -0.04726487 -0.08686568 -0.039587487
-0.043362923 -0.019927092 -0.0602799 -0.0736743 -0.03231229 -0.04676562 -0.04322053 0.013318684
-0.04203726 -0.023141067 0.011290861 -0.036087967 -0.04086238 0.009891876 -0.038246457 -0.027987
0.035748098 -0.03523922 -0.06900504 0.012715133 -0.040428657 0.044159047 -0.021697912 0.019949662
-0.011298919 0.026530093 0.037077084 -0.025827587 0.014567903 -0.03771726 -0.0864374 -0.039878722
00000000: 87fb 0d3d 5c7a 403d 1b40 d33c d44b e0bc
00000010: 24a8 4f3d be88 a13b 5f8f 943c a7d0 5cbc
00000020: 72bd 0d3d 5bde bfbd da0a ccbd 9be8 6ebd
00000030: 3c21 d5bd 21fa d8bd 688b c4bd 1e9b ebbd
00000040: 4e29 81bd d1b9 f5bd 84d7 7ebb d3b3 6a3c
00000050: f8f9 563d fbed 163d e309 343d af93 d9bb
00000060: 0ab0 ee3b f61f dabc 8260 e2bc b607 1d3c
00000070: 5575 1bbd d2df 9abd 5e62 aebc 7343 27bd
00000080: f4cf adbd fe42 f6bc e7c0 96bd 8e87 91bd
00000090: d530 93bc 69a1 dd3c 14ba 053c b3e1 22bd
000000a0: 8761 05bc fefe 113d 5ad9 463c 5f01 28bd
000000b0: e930 db3c 7ac3 19bd caf8 3c3b 88fc 543c
000000c0: 4344 d1bc 9464 113c 3962 a5bc 5e08 923c
000000d0: 46d5 30bc fa2b 9cbd dfbe 813d 5143 433d
000000e0: 2ec3 47bc d2db 99bb 58cc 03bd 3228 053d
000000f0: 4bde b13c 8e16 c23c 1836 5b3c c749 5cbd
00000100: ca94 01bb 31c1 c5bd 4a73 54bd 3a48 0d3b
00000110: 61df d8bd 1521 0d3d 424d 7d3e 4001 cb3d
00000120: 0dab 803c 1763 7e3c ad44 a93c 207d 06bd
00000130: 73ca f03c 084a 8dbc 6713 023d 18d0 053d
00000140: 25e7 57bc c166 0f3d 8f70 05bd 9acd e1bc
00000150: 21ec c03b f847 323d 56d4 2a3d 8fe7 103d
00000160: ef0f bc3b 7f96 dc3c 66c0 87bc 57cb 123c
00000170: ff6e 153d aed8 1b3b c5a3 21bd 67f8 193d
00000180: 597c 29bc 52dd 02bc 5457 f83c 86f0 9b3c
00000190: 5eab 113d 30e3 10bc 5b22 a93c 60d5 b2bb
000001a0: ab03 0b3d 3ba3 193d 96b5 bfbc 5a85 093d
000001b0: 7eab 1d3d 99f7 4d3d ca71 d63c dbbd dc3a
000001c0: 2fd6 473d 6bef d8bc 88d5 1c3d a36d 1d3d
000001d0: ba9c d13c 17ec 91bd 242b c5bd 52cf f8bd
000001e0: ce88 0ebe 50bc 21be 2b30 dbbd bf25 d7bd
000001f0: 6045 0bbe 2b29 27be 5251 c23c 2748 913c
00000200: 74e8 663d c157 c63c 46c7 0bbd 3dc1 8e3b
00000210: 7a16 1f3d 7ed4 71bc 980e f6bc b648 c6bb
00000220: 267f 2bbc 10da 85bc fb57 283c defc f3bc
00000230: 5b4e c73c 68c1 243d c30a 1ebd fb91 583c
00000240: f5dc 88bc ac32 00bd 81e5 1f3d 74a6 0cbc
00000250: 9f81 c3bc 90a5 42bc 02c9 583d 644f 073d
00000260: 98f6 ce3c df78 d9bc d5c4 1c3c 48b2 36bc
00000270: 4d34 51bc 127f f83b c55c 263c 17df 1abd
00000280: 6158 933a cb4e 23bd 28c3 c33c 941e 083d
00000290: 3643 2f3c 361c 27bd e0b2 a13b 2667 b4bc
000002a0: f6f7 1fbc 163f dcbb eeed f83c 6e62 433b
000002b0: 986c 81ba ba29 c13b 9cb5 78bc 1b59 a9bc
000002c0: 1061 9fbc 79b4 d3bc f79d 52bc 3572 a73c
000002d0: 1d86 b8bc 825d 883b 86c9 80ba e26f 03bc
000002e0: 9e0a 90bc 57a6 12bc 1232 81bc 7f2d c5ba
000002f0: 4ba7 70bc 263e b5bc cd5e 133d 0fb3 3a3d
00000300: a8bb abbc bb1e 41bd de3a fbbc 1d64 b33c
00000310: 0ce4 6ebd cd2e e53c 23e0 b83b 54ce 05bd
00000320: dfc4 00bd bd5f 5ebc b4c7 bbbd 6fdc 91bd
00000330: 6403 b0bd 6629 dcbc cd36 6cbd 2558 593c
00000340: 8a18 28bd bbd2 5b3b 6060 d2bb 578a f93c
00000350: f10d 6dbd 0f37 073d afb7 363a 3ec5 a73b
00000360: 3586 0abe 07f3 5fbd b3a2 eabc f673 41be
00000370: ee79 89bd cf98 41bd a2e6 b1bd 7d26 22bd
00000380: 529d 31bd 243e a3bc 0ee8 76bd 8de2 96bd
00000390: e459 04bd 4f8d 3fbd 0308 31bd 9c36 5a3c
000003a0: 432f 2cbd 5692 bdbc 4efd 383c fad0 13bd
000003b0: 505f 27bd 8911 223c 51a8 1cbd fe44 e5bc
000003c0: 996c 123d 0057 10bd 8452 8dbd 2253 503c
000003d0: 8598 25bd 1ee0 343d d2bf b1bc 796d a33c
000003e0: 1a1f 39bc a355 d93c 24de 173d 6094 d3bc
000003f0: 37ae 6e3c 6a7d 1abd 1706 b1bd df57 23bd

conv1.bias f4 [64]
-0.022081044 -0.02838509 -0.019215312 0.0034531278 -0.01801583 0.012177356 0.003077254 -0.011443436
-0.0626699 -0.027054051 -0.039410025 0.03101412 0.017564971 0.041902304 -0.025365004 0.029906774
0.02549974 0.018031752 0.028238455 0.013892574 0.0036387804 0.0016508166 0.007519399 0.01125279
-0.0414001 -0.04182378 0.020884773 0.0014358723 -0.04158453 0.009372282 -0.05430618 -0.042144053
0.03255244 -0.0018314073 -0.01822158 -0.021246467 0.033353575 -0.029252576 -0.0013164411 0.005773331
0.031130377 -0.015593626 -0.034996115 -0.010742476 -0.0041686594 0.020885615 0.0005790333 0.010109029
0.0055627087 0.010026906 0.036042694 -0.021520557 0.013732175 0.008822615 -0.028734976 0.021240156
0.009166146 -0.008777742 -0.0026192914 -0.01244777 0.02858516 -0.04386835 0.011978311 -0.045283396
00000000: 4ee3 b4bc d987 e8bc 6e69 9dbc df4d 623b
00000010: ef95 93bc 8883 473c c1ab 493b 407d 3bbc
00000020: 1459 80bd 75a0 ddbc 686c 21bd 5311 fe3c
00000030: 6ae4 8f3c c0a1 2b3d 45ca cfbc 0dff f43c
00000040: d5e4 d03c 53b7 933c 5554 e73c ae9d 633c
00000050: 9b78 6e3b 3760 d83a 4a65 f63b 9f5d 383c
00000060: 2793 29bd 694f 2bbd 8b16 ab3c e133 bc3a
00000070: 8a54 2abd 338e 193c 2870 5ebd 3e9f 2cbd
00000080: b555 053d d50b f0ba 6c45 95bc 120d aebc
00000090: c29d 083d 19a3 efbc 6f8c acba 362e bd3b
000000a0: 2205 ff3c 687c 7fbc 1658 0fbd 3601 30bc
000000b0: 4099 88bb 4f18 ab3c 44ca 173a 57a0 253c
000000c0: 6247 b63b e447 243c 81a1 133d e14b b0bc
000000d0: ebfc 603c bb8c 103c 9d65 ebbc d6ff ad3c
000000e0: 9a2d 163c 85d0 0fbc 6ba8 2bbb bbf1 4bbc
000000f0: 6d2b ea3c 4daf 33bd ae40 443c 157b 39bd

conv2.weight f4 [64, 64, 3, 3]
0.0077895615 0.009406817 -0.037366446 0.041737065 -0.014415238 -0.040208712 0.017601587 -0.0023238917
0.013641397 -0.015493902 0.0390252 0.037299834 -0.014851309 -0.02420298 0.020699156 0.0016531061
0.0045902673 -0.03884947 -0.038009796 0.0096039865 -0.032321278 0.0126839 -0.037177984 -0.03808447
0.041228425 -0.042842917 -0.017973924 0.07189166 0.03902381 0.021601759 0.063494034 -0.025858905
-0.052943796 0.047167666 -0.03090609 -0.036693748 -0.005860904 0.023635127 -0.009386521 -0.0152796
-0.03516272 0.005106491 -0.027054062 0.04659984 0.047569506 -0.02386628 0.012770164 0.00908839
0.0127881905 -0.026616702 -0.026188146 -0.037516024 0.021018868 -0.02676019 -0.005532035 -0.011607148
0.0021953958 -0.031386614 0.053072456 0.060501907 -0.018534295 0.008016972 0.0030917088 0.039506286
0.009832666 0.016911024 0.030314105 -0.041199926 -0.036290023 0.008080372 -0.012725951 -0.041603796
0.018360974 -0.0057049636 -0.0010290225 0.026607335 0.01785189 0.035574038 -0.026966387 0.008458998
0.05410157 0.0013957842 0.00045634026 -0.036975533 0.02401795 0.018642204 0.022428319 -0.036009833
-0.041608404 0.0138179455 -0.021585148 -0.03707639 -0.039031517 -0.027292086 -0.062618986 -0.045832206
-0.025746755 0.013483178 0.02055943 -0.02940309 -0.024092363 0.014669973 0.012545326 -0.03849554
-0.044048395 -0.047147755 -0.01465905 0.013837455 0.02474473 0.021805575 -0.036032986 -0.02740508
0.00038918824 -0.049447123 -0.040412594 -0.034276694 -0.04415302 0.03340143 0.01197123 -0.012775196
0.046566367 0.0038181716 0.0044389754 0.023904651 -0.022745438 -0.033971258 0.053821407 -0.0012805319
-0.052135326 0.028391922 0.02163846 -0.060906738 -0.030420821 -0.049448982 -0.010331423 0.04357745
0.022009496 -0.008409633 0.05716121 -0.011519054 0.01964199 0.024712473 0.012215951 0.021221986
-0.03698448 -0.08293133 -0.029496072 -0.07120814 -0.023847152 -0.05281563 -0.04675103 -0.053176753
-0.051969364 -0.007207757 -0.031335466 -0.013221397 0.030656705 0.0225907 -0.03660881 -0.03411002
0.039887715 0.04083816 -0.011961936 -0.014446805 -0.026732808 0.038407583 0.018983437 -0.0040441863
-0.013624076 0.0069167386 0.030668497 0.00018374038 -0.0055849575 0.027684897 -0.054062564 0.03306637
0.03263657 0.0106135085 -0.0500622 0.010883359 -0.039707568 -0.035823636 0.032502443 -0.03240786
-0.0029447996 0.0051665017 0.041244455 0.010751396 0.035699815 -0.039539576 -0.015313091 0.021257792
-0.036075056 0.013160259 -0.0108913835 -0.008734161 0.037540775 -0.005785318 0.01338694 0.03478478
0.0022179633 0.01592828 0.03779794 0.033917263 0.01871424 0.010840844 0.009714174 0.009073228
0.02067856 0.016559552 0.01090918 -0.0011533241 0.023480834 0.016530605 -0.01185831 0.012457775
-0.037048604 -0.0004023545 -0.026107943 0.008656219 -0.0015750971 0.020966575 0.025821632 -0.02110314
-0.019609218 -0.014059795 -0.00784308 -0.017230228 0.031936053 0.03888052 -0.0011137737 -0.017985389
-0.0018176291 0.03220783 0.0262755 0.030091543 -0.023508588 0.029674528 0.007641264 -0.019535009
0.00094317447 0.054437824 -0.010968664 0.0037453275 -0.0077437134 0.027273888 -0.024015455 0.030922541
0.0052839294 0.00021916397 -0.0111184465 -0.01945901 -0.0385902 -0.0320209 -0.03525251 -0.036441445
00000000: 943f ff3b 0d1f 1a3c 8f0d 19bd 7cf4 2a3d
00000010: e42d 6cbc e4b1 24bd 3431 903c 6f4c 18bb
00000020: 2a80 5f3c 23da 7dbc e3d8 1f3d b6c7 183d
00000030: e852 73bc 5445 c6bc 4791 a93c 09ad d83a
00000040: f469 963b 9f20 1fbd 29b0 1bbd 0a5a 1d3c
00000050: 5163 04bd 22d0 4f3c f147 18bd 76fe 1bbd
00000060: 23df 283d 0e7c 2fbd 0d3e 93bc ef3b 933d
00000070: 6ed7 1f3d 2cf6 b03c 2909 823d 0ed6 d3bc
00000080: 98db 58bd e232 413d c52e fdbc 2f4c 16bd
00000090: d40c c0bb 749e c13c ecc9 19bc 4a57 7abc
000000a0: c906 10bd 5a54 a73b 7ba0 ddbc 79df 3e3d
000000b0: 3ed8 423d 3883 c3bc f339 513c 78e7 143c
000000c0: 8f85 513c 450b dabc 8688 d6bc 67aa 19bd
000000d0: c32f ac3c 3038 dbbc 1346 b5bb e82b 3ebc
000000e0: a1e0 0f3b 408f 00bd 8162 593d d9d0 773d
000000f0: 3cd5 97bc 9e59 033c 449e 4a3b 58d1 213d
00000100: 3119 213c fd88 8a3c 4955 f83c 41c1 28bd
00000110: d9a4 14bd 8963 043c 8280 50bc be68 2abd
00000120: c169 963c b4f0 babb 44e0 86ba a0f7 d93c
00000130: 203e 923c 15b6 113d 9de8 dcbc 9c97 0a3c
00000140: 9c99 5d3d bff2 b63a f440 ef39 a873 17bd
00000150: 4bc1 c43c 89b7 983c 98bb b73c 0c7f 13bd
00000160: 936d 2abd aa64 623c 56d3 b0bc 6add 17bd
00000170: 83df 1fbd a793 dfbc 623e 80bd 8dba 3bbd
00000180: dcea d2bc 8ce8 5c3c 406c a83c c0de f0bc
00000190: 595d c5bc 545a 703c e98a 4d3c 80ad 1dbd
000001a0: 176c 34bd 011e 41bd 832c 70bc 7eb6 623c
000001b0: 76b5 ca3c 9ba1 b23c 5397 13bd 9e80 e0bc
000001c0: f60b cc39 1189 4abd ad87 25bd b865 0cbd
000001d0: ccd9 34bd f0cf 083d fa22 443c 0e4f 51bc
000001e0: 60bc 3e3d 4a3a 7a3b d374 913b b0d3 c33c
000001f0: a454 babc 7225 0bbd d673 5c3d 85d7 a7ba
00000200: da8b 55bd 2d96 e83c 2443 b13c 5879 79bd
00000210: 1635 f9bc 048b 4abd 2145 29bc 457e 323d
00000220: 424d b43c 8fc8 09bc df21 6a3d 6aba 3cbc
00000230: 3de8 a03c d071 ca3c 6a25 483c bbd9 ad3c
00000240: 0a7d 17bd e7d7 a9bd bfa1 f1bc 93d5 91bd
00000250: 1a5b c3bc 3455 58bd 027e 3fbd decf 59bd
00000260: d4dd 54bd 0c2f ecbb 9e59 00bd 8f9e 58bc
00000270: c523 fb3c 2210 b93c 1ff3 15bd f3b6 0bbd
00000280: 4d61 233d ea45 273d fffb 43bc 4bb2 6cbc
00000290: c3fe dabc 4551 1d3d 2783 9b3c 1885 84bb
000002a0: 8437 5fbc cfa5 e23b 803c fb3c 6faa 4039
000002b0: 0502 b7bb 70cb e23c b570 5dbd 9a70 073d
000002c0: edad 053d 48e4 2d3c 050e 4dbd 1e50 323c
000002d0: 67a4 22bd cebb 12bd 4821 053d 1bbe 04bd
000002e0: 8afd 40bb c24b a93b f2ef 283d a026 303c
000002f0: f839 123d 40f4 21bd c2e3 7abc d224 ae3c
00000300: 70c3 13bd 219e 573c c671 32bc ba19 0fbc
00000310: 5bc4 193d c492 bdbb e554 5b3c 7c7a 0e3d
00000320: 405b 113b 067c 823c 03d2 1a3d d4ec 0a3d
00000330: 9b4e 993c cc9d 313c 3328 1f3c e0a7 143c
00000340: 1566 a93c e6a7 873c 6bbc 323c 232b 97ba
00000350: e15a c03c 316b 873c 5b49 42bc b21b 4c3c
00000360: 47c0 17bd 1bf3 d2b9 53e0 d5bc d0d2 0d3c
00000370: 7d73 ceba 18c2 ab3c e387 d33c 7ee0 acbc
00000380: 83a3 a0bc 0e5b 66bc 4380 00bc 6826 8dbc
00000390: 61cf 023d 2e41 1f3d 0bfc 91ba 1856 93bc
000003a0: 833d eeba 5cec 033d b83f d73c 8a82 f63c
000003b0: 1595 c0bc ff17 f33c 9163 fa3b e207 a0bc
000003c0: 5e3f 773a 32fa 5e3d e9b5 33bc 2b74 753b
000003d0: fabe fdbb 7d6d df3c 0fbc c4bc 4551 fd3c
000003e0: d024 ad3b 61cf 6539 252a 36bc 8068 9fbc
000003f0: c210 1ebd 5928 03bd f064 10bd a043 15bd

conv2.bias f4 [64]
0.018954266 -0.049554672 -0.053500894 -0.089501925 0.030445728 0.035888966 -0.05383592 -0.0381534
-0.0016537602 -0.018265422 -0.061782867 -0.00845102 -0.03589746 -0.004896667 -0.015803324 -0.014187235
-0.03283133 0.011186733 -0.09721617 -0.009931824 -0.024379272 0.0021346218 0.011245325 -0.02935036
-0.019711522 0.00163776 -0.042879757 -0.047787637 -0.030418279 0.020556781 0.010933886 -0.020449782
-0.045853253 -0.03161789 0.028167864 0.030940196 0.038868118 0.009200448 -0.0494513 0.0371702
-0.06551256 0.0088742655 -0.039287653 -0.026829854 0.01403815 -0.0011295058 0.004378147 0.009703246
0.017335786 0.0066136536 -0.041692264 -0.028518386 0.010402671 -0.043451753 0.018336548 -0.07934366
-0.02875621 -0.016631106 -0.0018420479 -0.0029135845 0.034056343 0.020684928 0.010614235 -0.055822533
00000000: fa45 9b3c d7f9 4abd c123 5bbd c94c b7bd
00000010: 5269 f93c 4f00 133d 0e83 5cbd bd46 1cbd
00000020: fcc2 d8ba 5ea1 95bc 0810 7dbd 2676 0abc
00000030: 3709 13bd 3874 a0bb f975 81bc 9471 68bc
00000040: 257a 06bd 8f48 373c 4519 c7bd 17b9 22bc
00000050: 0ab7 c7bc 03e5 0b3b 503e 383c 2b70 f0bc
00000060: 0f7a a1bc 1baa d63a afa2 2fbd f8bc 43bd
00000070: c12f f9bc b266 a83c 0b24 333c 4d86 a7bc
00000080: 9fd0 3bbd c381 01bd 4bc0 e63c 4b76 fd3c
00000090: 2d34 1f3d 7abd 163c 728d 4abd c83f 183d
000000a0: 732b 86bd 5e65 113c 17ec 20bd 48ca dbbc
000000b0: 4500 663c ed0b 94ba 8f76 8f3b 5dfa 1e3c
000000c0: c703 8e3c 59b7 d83b 82c5 2abd 649f e9bc
000000d0: f76f 2a3c 77fa 31bd 8736 963c ee7e a2bd
000000e0: 2592 ebbc f53d 88bc df70 f1ba d6f1 3ebb
000000f0: aa7e 0b3d 7073 a93c 54e7 2d3c 2ba6 64bd

conv3.weight f4 [64, 64, 3, 3]
0.019359749 0.010810898 0.036378898 0.013945633 -0.015464364 -0.052798133 0.026714543 -0.03400497
0.0012455959 -0.033118498 0.020857334 -0.0065036933 -0.04748198 -0.055910084 0.006315816 -0.0385001
-0.038889695 0.02837421 -0.024828525 0.013019416 0.040775687 0.028726043 -0.0144698275 -0.0065563116
-0.02106481 -0.011153549 0.0053852308 -0.01271104 -0.032757234 0.0042947126 0.023220101 -0.01728249
0.011113327 0.03915042 0.04881673 0.016123077 0.017050486 -0.033964675 0.028122628 0.016780961
0.009754192 -0.02993307 -0.05207161 -0.04526728 -0.023124047 -0.01173914 0.030004917 0.026201857
-0.032748003 -0.034166932 -0.024617217 0.0016571875 0.003105646 -0.04515286 -0.01816874 -0.022443913
-0.059581306 -0.042624105 -0.015388203 0.019503955 0.009458399 -0.0038331742 0.026143933 0.02951858
-0.025567422 0.010337217 -0.029985031 0.028055009 0.049257066 0.012228814 -0.011701774 -0.00097333203
-0.022818323 -0.027101273 0.015630705 0.0042922725 -0.0444181 -0.021820402 -0.020999346 0.011516844
-0.031884592 0.008147046 -0.0415768 -0.0059596915 -0.030502474 -0.017113512 0.015365402 0.033580147
0.040536303 0.021343255 -0.029209645 -0.021505924 -0.009001315 0.0030672231 -0.03273993 -0.047898732
-0.03005891 0.024214221 -0.053398136 -0.011420403 -0.033643857 -0.0060017123 -0.036080185 -0.027733458
-0.020950831 -0.007612391 0.021825498 0.0067762095 -0.031252373 0.011803478 -0.041204732 0.0065237964
-0.021350551 -0.041628394 -0.03261421 -0.023577975 0.022908242 -0.021783188 -0.03870273 0.0005737434
-0.02557237 0.036664214 0.01572667 0.0025425432 -0.008317459 0.02183239 0.014903531 -0.02575047
0.014440693 0.026302261 0.004939867 0.017597478 0.03712982 0.003916401 0.0136507945 -0.012236905
0.030278567 -0.04601708 0.01574463 0.0039698873 -0.0073985243 0.051691294 0.12532422 0.09563335
-0.046710562 0.012770682 0.006783734 0.030706285 0.032723658 -0.04668863 0.03218416 0.023258613
-0.026696382 -0.018041477 0.030105865 -0.023518274 -0.041507762 -0.003707313 0.004501159 -0.00029313882
-0.029366853 -0.023083182 -0.052864682 -0.006328671 0.0022956047 -0.0131113725 0.0082247015 0.0058496566
0.017772665 -0.01905543 -0.032522313 0.041523155 -0.0017401525 0.0120116845 0.005533986 -0.039676383
-0.0025985069 -0.07643909 -0.09979341 -0.06285421 -0.056627702 -0.057467274 0.025087167 -0.016397899
0.030420866 0.02389718 0.03414175 0.0255211 -0.020741152 0.021850819 -0.03759601 -0.021623507
-0.017514415 -0.012338847 -0.010189507 -0.021381563 -0.00089837995 0.035949294 -0.101468086 -0.08200838
-0.08712994 -0.098238 -0.020765718 -0.058944117 -0.035537742 -0.04149859 -0.013284912 -0.01476855
-0.04182409 0.019090146 0.0028427253 -0.007291703 0.022990203 -0.030114954 0.014263198 0.039557755
-0.033643458 0.012391262 -0.029951079 -0.00556863 0.01503741 -0.017833069 -0.021221042 0.0018133696
-0.018500151 0.024645306 0.019865535 0.023968218 -0.012483922 -0.035228588 -0.013941296 -0.011338357
-0.043829236 -0.027013589 -0.019230898 0.010328983 0.032792713 -0.0064686434 -0.021696538 -0.017234733
-0.0028675902 -0.018451419 -0.0132139055 0.001377531 -0.0107329935 0.0015214938 -0.02693104 -0.0020993396
-0.022718983 -0.020834407 -0.023834763 0.019869635 0.004145383 0.0034832896 -0.033107463 -0.0365662
00000000: 5698 9e3c 3120 313c 0a02 153d 397c 643c
00000010: 3e5e 7dbc db42 58bd 75d8 da3c cc48 0bbd
00000020: 4343 a33a 43a7 07bd 00dd aa3c ef1c d5bb
00000030: 777c 42bd f901 65bd e8f4 ce3b 48b2 1dbd
00000040: cd4a 1fbd 0871 e83c 3165 cbbc 634f 553c
00000050: 6804 273d e152 eb3c db12 6dbc 54d6 d6bb
00000060: 1c90 acbc 60bd 36bc 9776 b03b f741 50bc
00000070: 732c 06bd a9ba 8c3b 1538 be3c 0294 8dbc
00000080: ac14 363c 315c 203d 0df4 473d 8b14 843c
00000090: 76ad 8b3c 8b1e 0bbd 6d61 e63c 3a78 893c
000000a0: 0cd0 1f3c 3336 f5bc 0a49 55bd 2f6a 39bd
000000b0: a46e bdbc 8655 40bc dfcc f53c 47a5 d63c
000000c0: c522 06bd a0f2 0bbd 0caa c9bc fc35 d93a
000000d0: 1888 4b3b 35f2 38bd 9cd6 94bc 4cdc b7bc
000000e0: 870b 74bd 9d96 2ebd cd1e 7cbc c2c6 9f3c
000000f0: 67f7 1a3c fe35 7bbb cd2b d63c f3d0 f13c
00000100: c572 d1bc 6e5d 293c 2ba3 f5bc 9ed3 e53c
00000110: c7c1 493d 5d5b 483c ccb8 3fbc 3527 7fba
00000120: 7eed babc 7d03 debc f70b 803c 31a6 8c3b
00000130: c1ef 35bd b3c0 b2bc d206 acbc 25b1 3c3c
00000140: 6b99 02bd 307b 053c 6f4c 2abd 8449 c3bb
00000150: 53e0 f9bc a331 8cbc 2bbf 7b3c 568b 093d
00000160: 6509 263d 0dd8 ae3c 1149 efbc 312d b0bc
00000170: 407a 13bc 7703 493b 4e1a 06bd 7631 44bd
00000180: 1a3e f6bc e75c c63c 01b8 5abd a41c 3bbc
00000190: 24ce 09bd 03aa c4bb d1c8 13bd 4731 e3bc
000001a0: 14a1 abbc 5d71 f9bb 63cb b23c f70a de3b
000001b0: 7d02 00bd 6063 413c 4bc6 28bd 92c5 d53b
000001c0: 5ae7 aebc 8982 2abd 7a96 05bd 9926 c1bc
000001d0: 11aa bb3c a872 b2bc c186 1ebd 4567 163a
000001e0: 267d d1bc 372d 163d 38d5 803c cca0 263b
000001f0: f445 08bc d7d9 b23c f12d 743c a6f2 d2bc
00000200: a898 6c3c d777 d73c 9cde a13b 9628 903c
00000210: 7015 183d 2755 803b 95a7 5f3c 4d7d 48bc
00000220: c20a f83c 687c 3cbd e2fa 803c d415 823b
00000230: 526f f2bb 40ba 533d fe54 003e 6bdb c33d
00000240: 9353 3fbd 1f3c 513c 164a de3b bf8b fb3c
00000250: 3e09 063d 943c 3fbd 8ad3 033d d988 be3c
00000260: 5fb2 dabc b8cb 93bc 93a0 f63c 65a9 c0bc
00000270: 0b04 2abd 64f6 72bb 757e 933b 6db0 99b9
00000280: c192 f0bc f118 bdbc a388 58bd bd60 cfbb
00000290: db71 163b 15d1 56bc e6c0 063c 7aae bf3b
000002a0: fb97 913c 221a 9cbc 1e36 05bd 2f14 2a3d
000002b0: d415 e4ba a8cc 443c 7056 b53b b483 22bd
000002c0: b64b 2abb 198c 9cbd 7d60 ccbd b5b9 80bd
000002d0: 73f2 67bd ce62 6bbd 9a83 cd3c e354 86bc
000002e0: 2e35 f93c 05c4 c33c 38d8 0b3d a011 d13c
000002f0: 59e9 a9bc 7d00 b33c 46fe 19bd c823 b1bc
00000300: 647a 8fbc e028 4abc e4f1 26bc 6328 afbc
00000310: 4281 6bba 913f 133d 80ce cfbd 02f4 a7bd
00000320: 2f71 b2bd 0131 c9bd de1c aabc 636f 71bd
00000330: 0690 11bd 6dfa 29bd f6a8 59bc caf7 71bc
00000340: bd4f 2bbd f062 9c3c 044d 3a3b 3def eebb
00000350: f355 bc3c a3b3 f6bc 30b0 693c 5007 223d
00000360: b9cd 09bd b804 4b3c f75b f5bc 0e79 b6bb
00000370: 785f 763c a816 92bc c0d7 adbc 96ae ed3a
00000380: a18d 97bc f4e4 c93c 0cbd a23c ff58 c43c
00000390: 5d89 4cbc da4b 10bd 096a 64bc 84c4 39bc
000003a0: 4986 33bd 9a4b ddbc 1e8a 9dbc e53a 293c
000003b0: a751 063d eaf6 d3bb f0bc b1bc db2f 8dbc
000003c0: 2eee 3bbb 6e27 97bc 237f 58bc 458e b43a
000003d0: 70d9 2fbc dc6c c73a 7c9e dcbc 1395 09bb
000003e0: 291d babc ebac aabc 1f41 c3bc a5c5 a23c
000003f0: fed5 873b e747 643b b19b 07bd 71c6 15bd

conv3.bias f4 [64]
0.022284519 0.03298363 -0.11134909 -0.011126454 0.02644946 -0.012840908 0.025426725 0.0014571894
-0.058712043 -0.008851778 0.0016251167 0.0421172 0.031411316 -0.10292586 0.019960059 0.033453755
0.010283763 0.021918822 0.038422193 0.0021511922 0.033322316 0.03225276 -0.007670117 -0.029645797
-0.0025163572 0.03198531 -0.062206153 -0.046600394 -0.07236366 0.024632692 -0.04059967 0.002957399
0.02623535 -0.062122025 -0.007396409 -0.004177595 0.021492288 0.005431586 -0.03305072 -0.0033693009
0.031187845 -0.018130943 -0.027764253 -0.05233042 0.037225332 0.023731917 0.014467521 0.0011803536
0.004086311 -0.07210253 -0.03374486 0.0063478095 -0.02483667 0.038856246 0.019976417 0.049735546
-0.009423906 -0.016600668 0.014041081 -0.007141678 -0.009914485 -0.009228636 -0.050743654 0.008235763
00000000: 068e b63c d819 073d fe0a e4bd bb4b 36bc
00000010: 8aac d83c ac62 52bc b54b d03c 2aff be3a
00000020: 0a7c 70bd 0c07 11bc de01 d53a 1683 2c3d
00000030: 27a9 003d cbca d2bd 4783 a33c ce06 093d
00000040: 3a7d 283c 1a8f b33c 9760 1d3d 04fb 0c3b
00000050: fb7c 083d 781b 043d 9b55 fbbb bedb f2bc
00000060: 78e9 24bb 0703 033d e1cb 7ebd 0ee0 3ebd
00000070: 6633 94bd 80ca c93c d74b 26bd ecd0 413b
00000080: 84eb d63c aa73 7ebd 935d f2bb 35e4 88bb
00000090: 9810 b03c 72fb b13b 3160 07bd 7dcf 5cbb
000000a0: a77d ff3c 5887 94bc dc71 e3bc 6c58 56bd
000000b0: 9779 183d 7069 c23c 2e09 6d3c 18b6 9a3a
000000c0: 76e6 853b 7eaa 93bd 0d38 0abd 4901 d03b
000000d0: 4676 cbbc ba27 1f3d 95a5 a33c 80b7 4b3d
000000e0: ba66 1abc 20fe 87bc 900c 663c bd04 eabb
000000f0: 5d70 22bc b433 17bc 94d8 4fbd 4bef 063c

conv4.weight f4 [64, 64, 3, 3]
-0.01825724 -0.009927761 0.0446437 0.0060254056 0.018698305 0.0072237593 -0.021507105 0.021102002
0.045139387 -0.04003121 -0.017721992 -0.05617632 0.0005396607 0.012077981 -0.033296857 -0.028847441
0.020247716 0.009989485 0.037334 -0.017968088 -0.024161264 -0.01615467 -0.01780846 -0.016288502
-0.004405977 -0.004462795 -0.01877634 0.012771627 -0.042157166 -0.021379827 0.03224312 0.003263677
0.028637582 -0.012446093 0.01259617 -0.030721288 -0.094272316 -0.09661914 -0.06524912 -0.025696514
0.021832027 0.04271977 0.002823835 -0.04284613 -0.029828947 0.0028452766 -0.014555363 0.022427268
-0.028753832 0.022166438 -0.030260853 -0.017219208 -0.018953271 0.025352303 0.008044772 0.05385987
0.07141554 0.021188362 0.03403792 -0.026589908 -0.019301925 0.035335016 -0.02516596 -0.038588274
0.0059187324 0.0121122515 0.014096444 -0.028897757 0.019012965 0.0034685677 -0.0040115686 0.015942076
-0.018684564 -0.021218136 -0.035836868 0.005754642 0.010684713 -0.019913426 -0.0009018583 0.0070971386
-0.008908399 -0.0024561218 -0.051139567 -0.050490636 -0.038403083 -0.054866668 -0.01831612 -0.0145068625
0.017005943 0.042173874 0.0057129827 -0.035240307 -0.0505325 0.012002128 0.021030564 -0.027388426
-0.0001642071 -0.038497332 -0.041143227 -0.06268944 0.0018823474 -0.016249677 -0.075600564 -0.016679615
-0.03044271 -0.002397884 -0.013650285 -0.00908398 0.014982014 -0.043282524 -0.049600866 -0.033581637
-0.05896705 0.020326821 -0.03660893 -0.05101678 -0.02489375 0.0024730861 -0.015679145 -0.030524533
0.03134108 0.030253403 -0.015784571 0.04148463 -0.013762133 -0.03241171 0.012984305 -0.008092223
0.009630508 0.020630287 0.013026962 0.031624965 0.010101725 0.03859324 -0.025680175 -0.014735838
-0.018237388 -0.068855256 -0.06651014 0.006840957 -0.0012099168 0.004629973 0.0008667524 -0.023170542
0.002255577 -0.006865495 0.023999805 -0.046390228 -0.016868819 0.082036845 -0.034030184 0.07314035
0.08604734 -0.04133782 0.0048137372 -0.038374525 -0.054204088 -0.031989977 -0.033442453 -0.013717545
0.022095975 0.020395728 0.019808875 0.00040717694 0.032405935 -0.028663855 0.023993129 0.025904242
-0.025580883 0.042901378 -0.010097548 0.0025229205 0.037139334 -0.0072240033 0.015212568 0.007463487
-0.04890594 -0.015334763 0.0054684402 -0.023034204 -0.045305606 -0.04197846 0.029102873 0.008502252
0.017982017 0.025569567 -0.0013047388 -0.047637444 0.0050282907 -0.054230828 -0.04615788 -0.026137944
-0.07153897 -0.026492383 -0.0030571695 -0.07540965 -0.041910976 -0.07618008 0.004874295 -0.0049116355
-0.077232145 0.030616444 -0.04854296 -0.01799959 -0.02730817 -0.03969523 -0.02799231 -0.011071246
-0.00899664 -0.057385407 -0.04395846 -0.047463022 -0.03700121 -0.04594058 0.020942694 -0.02592599
0.037403107 0.048182078 0.077948116 -0.049469974 0.024703858 -0.0009585352 -0.011519729 -0.037930526
0.07703698 -0.019777259 -0.018507833 -0.02201494 -0.01967786 0.006188519 -0.00419453 -0.06464541
0.007722439 0.026510471 -0.040311344 0.0115822395 -0.0071152262 -0.023123663 0.0142797455 -0.013999007
-0.032856967 -0.004888972 0.016194006 -0.05717688 -0.052598454 -0.039204728 -0.03877056 -0.002629838
-0.036394063 -0.008822836 -0.033388328 -0.042574152 0.026629413 -0.05956353 0.028667029 -0.021733709
00000000: 3590 95bc 0ca8 22bc 50dc 363d c470 c53b
00000010: 302d 993c 49b5 ec3b ab2f b0bc 1bde ac3c
00000020: 14e4 383d c4f7 23bd b62d 91bc 2419 66bd
00000030: 0478 0d3a b9e2 453c 4962 08bd 7851 ecbc
00000040: 8ade a53c f0aa 233c 89eb 183d d031 93bc
00000050: d8ed c5bc cc56 84bc 0ce3 91bc 776f 85bc
00000060: 0460 90bb a33c 92bb d7d0 99bc 1640 513c
00000070: feac 2cbd bf24 afbc 5d11 043d 6ae3 553b
00000080: 5d99 ea3c b3ea 4bbc 2b60 4e3c 36ab fbbc
00000090: d811 c1bd 41e0 c5bd 55a1 85bd 7f81 d2bc
000000a0: 14d9 b23c edfa 2e3d 1710 393b 6c7f 2fbd
000000b0: d65b f4bc d277 3a3b 9e79 6ebc 64b9 b73c
000000c0: 288d ebbc 6496 b53c 9ce5 f7bc 4c0f 8dbc
000000d0: e443 9bbc a2af cf3c 38ce 033c 2b9c 5c3d
000000e0: 5042 923d 3793 ad3c 596b 0b3d 14d3 d9bc
000000f0: 121f 9ebc 73bb 103d d828 cebc bd0e 1ebd
00000100: edf1 c13b 7772 463c c5f4 663c fdba ecbc
00000110: 14c1 9b3c e950 633b 7a73 83bb f598 823c
00000120: 5f10 99bc a8d1 adbc aec9 12bd 7091 bc3b
00000130: ef0e 2f3c 7b21 a3bc b06a 6cba 1d8f e83b
00000140: 89f4 11bc e3f6 20bb b977 51bd 45cf 4ebd
00000150: 8d4c 1dbd dfbb 60bd b00b 96bc 31ae 6dbc
00000160: 0c50 8b3c 83be 2c3d f933 bb3b 2458 10bd
00000170: 2bfb 4ebd 93a4 443c 4a48 ac3c b15d e0bc
00000180: 022f 2cb9 61af 1dbd cd85 28bd 5263 80bd
00000190: 19b9 f63a 0b1e 85bc 78d4 9abd b0a3 88bc
000001a0: fd62 f9bc d125 1dbb 72a5 5fbc f9d4 14bc
000001b0: 1f77 753c 0449 31bd 472a 4bbd e68c 09bd
000001c0: 6f87 71bd 6f84 a63c 3ff3 15bd f9f6 50bd
000001d0: faed cbbc 8013 223b 8d71 80bc 960e fabc
000001e0: 815f 003d fcd5 f73c a54e 81bc caeb 293d
000001f0: 927a 61bc 24c2 04bd 1fbc 543c 3e95 04bc
00000200: 47c9 1d3c d900 a93c 0a6f 553c 2e89 013d
00000210: b581 253c f213 1e3d 3b5f d2bc 966e 71bc
00000220: 9366 95bc fc03 8dbd 7836 88bd 1b2a e03b
00000230: 1296 9eba 07b7 973b c536 633a 26d0 bdbc
00000240: 4dd2 133b f2f7 e0bb 3d9b c43c ae03 3ebd
00000250: 7a30 8abc ef02 a83d 3c63 0bbd 9cca 953d
00000260: 9639 b03d d951 29bd 8ebc 9d3b 9b2e 1dbd
00000270: 1b05 5ebd ec07 03bd f4fa 08bd 8ebf 60bc
00000280: 9e02 b53c f114 a73c 3946 a23c 5d7a d539
00000290: 16bc 043d 76d0 eabc 3d8d c43c 2235 d43c
000002a0: 008f d1bc 5bb9 2f3d 3070 25bc 9557 253b
000002b0: 6a1f 183d 55b7 ecbb 233e 793c 4490 f43b
000002c0: 9851 48bd a83e 7bbc 9a30 b33b 3ab2 bcbc
000002d0: 5f92 39bd 9bf1 2bbd 2669 ee3c 084d 0b3c
000002e0: 064f 933c 4577 d13c c503 abba 7b1f 43bd
000002f0: 5cc4 a43b 2521 5ebd 0c10 3dbd 3e1f d6bc
00000300: 0683 92bd 8e06 d9bc cb5a 48bb 6070 9abd
00000310: d8aa 2bbd 4d04 9cbd 8db8 9f3b c9f1 a0bb
00000320: e32b 9ebd 56cf fa3c fcd4 46bd e073 93bc
00000330: 62b5 dfbc 7797 22bd 2150 e5bc 2c64 35bc
00000340: a566 13bc f60c 6bbd c90d 34bd 9668 42bd
00000350: 958e 17bd 312c 3cbd 0390 ab3c be62 d4bc
00000360: 0034 193d 925a 453d 43a3 9f3d 07a1 4abd
00000370: bf5f ca3c 3546 7bba 3fbd 3cbc 0a5d 1bbd
00000380: 90c5 9d3d eb03 a2bc bd9d 97bc ad58 b4bc
00000390: 7733 a1bc 0fc9 ca3b 4572 89bb d064 84bd
000003a0: 830c fd3b 7d2c d93c 821d 25bd 6fc3 3d3c
000003b0: d826 e9bb d66d bdbc 98f5 693c 175c 65bc
000003c0: 0795 06bd ab33 a0bb 4ba9 843c 4e32 6abd
000003d0: 7a71 57bd 2395 20bd e1cd 1ebd 5c59 2cbb
000003e0: f111 15bd a88d 10bc 33c2 08bd 3c62 2ebd
000003f0: ed25 da3c e3f8 73bd 1ed7 ea3c e40a b2bc

conv4.bias f4 [64]
0.020080099 -0.052374687 -0.026339682 0.008796473 0.033001438 -0.021945378 -0.037405044 0.028650848
-0.030559434 -0.01138789 0.006802927 0.012332817 -0.035559937 -0.052629653 0.0036195298 -0.07264445
0.03649708 -0.08668042 0.021608248 0.027174197 0.02481573 0.024604127 0.022744667 -0.0010809267
0.04456443 0.01711579 -0.04884305 0.05443144 0.050423503 0.04074882 -0.04134346 0.009292944
0.015745334 -0.020012738 -0.034729924 0.0053482954 -0.01111053 -0.016823972 0.016685147 0.030339858
-0.027800994 0.018125921 -0.04590776 0.028112123 -0.0023847388 0.00054510555 0.020773236 0.03258323
-0.021679481 -0.06064999 -0.0492059 0.023185857 0.022381172 0.027018748 -0.04294728 0.0069335257
0.03084908 0.0026579965 -0.034625206 0.032132283 -0.008977312 0.0056617595 0.02972326 -0.01464701
00000000: 057f a43c d786 56bd 51c6 d7bc 151f 103c
00000010: 842c 073d cbc6 b3bc 0836 19bd 2fb5 ea3c
00000020: c757 fabc 4694 3abc 16eb de3b 950f 4a3c
00000030: 4ca7 11bd 3192 57bd a235 6d3b 9dc6 94bd
00000040: f67d 153d 8185 b1bd c803 b13c 6c9c de3c
00000050: 5c4a cb3c 988e c93c 0653 ba3c e2ad 8dba
00000060: 3189 363d 6a36 8c3c a60f 48bd 80f3 5e3d
00000070: e088 4e3d 3ce8 263d c357 29bd 6f41 183c
00000080: 5cfc 803c c1f1 a3bc f740 0ebd c140 af3b
00000090: f108 36bc 6dd2 89bc 4aaf 883c 4b8b f83c
000000a0: e9be e3bc d07c 943c c609 3cbd 654b e63c
000000b0: 4749 1cbb 6ae5 0e3a a22c aa3c fe75 053d
000000c0: 2b99 b1bc 206c 78bd 208c 49bd 44f0 bd3c
000000d0: b858 b73c 6c56 dd3c 7de9 2fbd a132 e33b
000000e0: 36b7 fc3c c831 2e3b 29d3 0dbd 249d 033d
000000f0: 9315 13bc 4886 b93b 327e f33c 03fa 6fbc

conv5.weight f4 [64, 64, 3, 3]
-0.037192263 -0.0016058098 -0.01981928 -0.002262245 -0.0426357 -0.030736128 -0.030032555 0.025726033
-0.003604191 0.0016389763 0.0145491585 0.02045749 0.007346545 0.04362547 -0.00010830138 0.018377647
0.032729615 0.07987597 -0.052029815 -0.019190682 -0.0070369076 -0.005445167 -0.012263808 0.004922605
-9.846327e-05 0.024619615 0.030985449 -0.038919553 -0.04460856 -0.042902675 0.007384227 -0.050813302
-0.012350904 -0.072096996 -0.09999536 -0.11304108 -0.034367885 0.026062746 0.02216247 0.013172742
-0.012891013 -0.0006300975 0.037463576 -0.0142934965 0.013110197 0.024606654 0.01845815 0.0007038291
-0.010615396 0.0016206279 0.035001207 -0.02407646 0.033738066 -0.0035964015 -0.1594979 -0.07959119
-0.06970049 -0.04340595 -0.10193338 -0.047473967 -0.0051233904 -0.05325782 0.012322992 -0.058541138
-0.004258132 -0.06743436 0.014390624 -0.032538265 -0.01312676 -0.05478773 -0.011555801 -0.026595892
-0.091427125 -0.020290675 -0.023849914 -0.046290044 -0.09892305 -0.042877816 0.020532278 -0.059440758
-0.08966199 0.042194866 0.053888053 0.008461745 0.032276 -0.020757334 0.01803222 -0.0025945941
0.0086153755 0.007421983 -0.06422106 -0.109574296 -0.061409127 0.04348329 -0.0508262 -0.020204049
0.0072261426 -0.019847268 -0.014696264 -0.03494654 0.002882122 0.022348432 0.012014609 0.021840142
0.05884475 -0.020351408 0.012935147 0.002851777 -0.12664738 -0.099863015 -0.0545099 -0.11984851
-0.11154516 -0.082365476 -0.060309105 -0.06718906 -0.08355721 0.02936421 0.029419772 0.028086312
-0.017722154 0.029776378 -0.028950756 0.017535832 -0.029263414 -0.050000485 -0.031808887 -0.0066456296
0.0016627252 -0.06429634 -0.05131276 0.027230497 -0.010313403 -0.0028457271 0.016108911 -0.13166556
-0.119601324 -0.10341413 -0.02065504 -0.044320248 -0.05423588 0.038452905 0.05856988 -0.022776933
-0.048385106 -0.0077051404 -0.050260704 -0.023667607 -0.03515953 -0.027108902 -0.083756655 -0.09383973
-0.100337386 0.0157821 -0.002783749 -0.018625084 0.021678735 0.0031397992 0.04487427 0.03274084
0.054828703 0.046994608 -0.022777686 -0.0018502721 0.054948855 -0.030070528 0.01795011 0.01937204
0.010122357 0.032301363 -0.013210792 0.0064966613 -0.03755505 -0.03281036 -0.0411485 0.018116437
-0.053364426 -0.02880917 0.02970692 -0.044019517 0.01669007 -0.027994625 -0.008434979 -0.03427454
-0.03662939 0.02246543 -0.029002361 0.0039062724 -0.007452464 0.06621891 0.047432996 0.057662454
0.04535067 0.053017672 0.06655588 0.055751763 0.0089049395 -0.012463691 0.017373562 -0.029659094
0.0043513817 -0.028962515 0.01095468 -0.02031681 0.0065983236 0.034624316 0.016071144 -0.05337913
-0.055781975 -0.054658968 -0.0036575354 -0.05885615 -0.059405193 0.036172464 -0.051238064 -0.076835714
-0.0029490022 0.030376015 0.007854033 -0.018778147 0.012598543 -0.056840427 0.009038594 0.052827697
-0.03424181 -0.0027071445 -0.018907838 0.05496334 -0.04753936 -0.029113228 0.023676122 -0.007045641
0.040457387 0.01586793 -0.17673032 -0.16935107 -0.07511287 -0.19282642 -0.12896867 -0.002795394
0.034755465 0.033201937 0.017525893 -0.078721575 -0.052200686 -0.032457568 -0.06473044 -0.049018104
-0.048985608 -0.12127782 -0.045422148 -0.05823787 0.007659353 -0.015925173 0.005056699 0.02186782
00000000: ea56 18bd 097a d2ba 0b5c a2bc 2c42 14bb
00000010: c6a2 2ebd 55ca fbbc d506 f6bc 67bf d23c
00000020: 4a34 6cbb ebd2 d63a 985f 6e3c 7796 a73c
00000030: 49bb f03b 9fb0 323d dc1f e3b8 b88c 963c
00000040: 7d0f 063d 0396 a33d 371d 55bd c735 9dbc
00000050: dc95 e6bb 5f6d b2bb 24ee 48bc ce4d a13b
00000060: 117e ceb8 13af c93c 32d5 fd3c 1c6a 1fbd
00000070: 77b7 36bd b7ba 2fbd 63f7 f13b 9c21 50bd
00000080: 725b 4abc 97a7 93bd 5eca ccbd 1582 e7bd
00000090: 57c5 0cbd 8a81 d53c 118e b53c 7cd2 573c
000000a0: d434 53bc 212d 25ba 6873 193d 452f 6abc
000000b0: 27cc 563c e593 c93c 8c35 973c 2c81 383a
000000c0: 33ec 2dbc 406b d43a 6d5d 0f3d ff3b c5bc
000000d0: ed30 0a3d 9bb1 6bbb 6b53 23be b500 a3bd
000000e0: 21bf 8ebd 70ca 31bd 73c2 d0bd 1074 42bd
000000f0: 1de2 a7bb df24 5abd 60e6 493c d5c8 6fbd
00000100: cd87 8bbb 071b 8abd a7c6 6b3c d846 05bd
00000110: 9f11 57bc 1969 60bd 8b54 3dbc a1df d9bc
00000120: 253e bbbd a138 a6bc e560 c3bc a19a 3dbd
00000130: 2b98 cabd a6a0 2fbd 4f33 a83c 2778 73bd
00000140: b5a0 b7bd 86d4 2c3d b8b9 5c3d 22a3 0a3c
00000150: d733 043d 490b aabc 4eb8 933c 110a 2abb
00000160: 8127 0d3c 1b34 f33b 5586 83bd 7d68 e0bd
00000170: 2388 7bbd 891b 323d 222f 50bd f682 a5bc
00000180: 47c9 ec3b bd96 a2bc 99c8 70bc 1a24 0fbd
00000190: fce1 3c3b 0f14 b73c ecd8 443c 19ea b23c
000001a0: 3107 713d ffb7 a6bc f0ed 533c e1e4 3a3b
000001b0: daaf 01be fb84 ccbd c645 5fbd 2373 f5bd
000001c0: ca71 e4bd 3baf a8bd ae06 77bd 6b9a 89bd
000001d0: 0b20 abbd 368d f03c bc01 f13c 4415 e63c
000001e0: 0d2e 91bc 97ed f33c 232a edbc 4ea7 8f3c
000001f0: d4b9 efbc 4fcd 4cbd 094a 02bd 95c3 d9bb
00000200: cdef d93a cdad 83bd 542d 52bd 7e12 df3c
00000210: 8cf9 28bc 617f 3abb d6f6 833c 56d3 06be
00000220: 8af1 f4bd caca d3bd c234 a9bc 2689 35bd
00000230: 7126 5ebd cb80 1d3d f8e6 6f3d b196 babc
00000240: 762f 46bd 677b fcbb 2bde 4dbd 92e2 c1bc
00000250: 7003 10bd 7d13 debc 9c88 abbd 0b2f c0bd
00000260: b07d cdbd 7649 813c 8f6f 36bb a293 98bc
00000270: 9a97 b13c 17c5 4d3b 15ce 373d 421b 063d
00000280: 1094 603d 6b7d 403d 4598 babc d484 f2ba
00000290: 0d12 613d 7856 f6bc 1c0c 933c 1db2 9e3c
000002a0: 3ed8 253c 6f4e 043d 1472 58bc f2e1 d43b
000002b0: 53d3 19bd 2864 06bd 548b 28bd ec68 943c
000002c0: a894 5abd 3501 ecbc ed5b f33c cf4d 34bd
000002d0: 9db9 883c fc54 e5bc de32 0abc 7663 0cbd
000002e0: b308 16bd 6c09 b83c 5c96 edbc 3000 803b
000002f0: cd33 f4bb c89d 873d 1a49 423d 772f 6c3d
00000300: a0c1 393d 0f29 593d 734e 883d f65b 643d
00000310: 06e6 113c 8234 4cbc 0053 8e3c a1f7 f2bc
00000320: 0996 8e3b cc42 edbc 427b 333c 706f a6bc
00000330: c036 d83b 3ad2 0d3d a2a7 833c 13a4 5abd
00000340: a47b 64bd 15e2 5fbd 43b3 6fbb 2513 71bd
00000350: dc52 73bd 9429 143d 01df 51bd 0b5c 9dbd
00000360: 0c44 41bb 1fd7 f83c 34ae 003c a1d4 99bc
00000370: 1f6a 4e3c 82d1 68bd 9c16 143c db61 583d
00000380: 2441 0cbd 596a 31bb 9ce4 9abc 3d21 613d
00000390: a2b8 42bd dd7e eebc 6df4 c13c 1fdf e6bb
000003a0: a5b6 253d 76fd 813c cbf8 34be 5e6a 2dbe
000003b0: c7d4 99bd 4a74 45be 5d10 04be ee32 37bb
000003c0: bf5b 0e3d c1fe 073d 7692 8f3c c738 a1bd
000003d0: 63d0 55bd 3af2 04bd 6591 84bd 35c7 48bd
000003e0: 22a5 48bd 8160 f8bd 930c 3abd d58a 6ebd
000003f0: 4ffb fa3b 8275 82bc aab2 a53b 2424 b33c

conv5.bias f4 [64]
-0.061919168 -0.006179236 0.0072272005 -0.02239894 -0.0061964015 -0.03793516 0.016398566 0.0038507066
-0.033328656 -0.0027705706 -0.04465812 -0.003532991 -0.03239024 -0.029263066 -0.013851306 -0.013457251
-0.018364746 0.036301944 -0.0038118619 0.0035221137 0.02180235 0.023640158 -0.030216847 0.02880841
-0.012983076 0.028582701 -0.044645693 -0.03845469 0.0103686415 0.037177414 -0.08210826 -0.1457504
0.026815996 0.001314745 0.023873694 0.0010002845 0.014559299 -0.059778113 -0.006888522 0.018334711
0.023404708 0.009077269 0.035654977 0.023815375 -0.04708528 0.005654476 -0.012850514 0.005034995
-0.01384295 -0.022119066 0.00091803813 0.022553252 0.019427005 -0.042885214 0.040723767 0.018081533
-0.07571657 0.009827895 -0.043069083 -0.0016871324 -0.032442443 -0.0039885035 -0.017216692 0.028395467
00000000: f49e 7dbd 307b cabb 27d2 ec3b fb7d b7bc
00000010: 2f0b cbbb e661 1bbd 4956 863c 235c 7c3b
00000020: a183 08bd 7692 35bb 6feb 36bd c189 67bb
00000030: a1ab 04bd 19b9 efbc 97f0 62bc cd7b 5cbc
00000040: aa71 96bc 59b1 143d 6ed0 79bb 43d3 663b
00000050: d89a b23c 01a9 c13c 5289 f7bc 9dff eb3c
00000060: f8b6 54bc 4526 ea3c 67de 36bd aa82 1dbd
00000070: 3ce1 293c 5847 183d 6028 a8bd 983f 15be
00000080: 38ad db3c 8653 ac3a c492 c33c fa1b 833a
00000090: 208a 6e3c e5d9 74bd 1cb9 e1bb ad32 963c
000000a0: 3bbb bf3c d3b8 143c f40a 123d 7618 c33c
000000b0: 7fdc 40bd 2f49 b93b f68a 52bc 99fc a43b
000000c0: 8acd 62bc 0b33 b5bc 7fa8 703a 99c1 b83c
000000d0: 6225 9f3c 68a8 2fbd f7cd 263d b91f 943c
000000e0: 4a11 9bbd 2e05 213c 3569 30bd c522 ddba
000000f0: 5ee2 04bd feb1 82bb 050a 8dbc 9c9d e83c
