Task3B - RealiImages SuperResolution/best_model_SRCNN.pth (torch, 231906 bytes, 5 tensors)

conv1.weight f4 [64, 1, 9, 9]
0.026202796 0.061211966 0.056968234 -0.028478885 0.062453724 0.0092796 -0.0078135505 0.006526923
0.059387714 -0.09969881 0.0014541342 0.026757443 0.018348964 -0.091095164 -0.024403717 -0.001725353
-0.008273581 -0.0919079 0.037731607 -0.08439744 0.060460903 0.06541953 0.049782358 0.10794463
-0.043683007 -0.03555741 0.08989966 -0.09836108 -0.08040653 0.030494336 0.029291287 0.097126566
0.067170106 0.08471801 -0.09399698 0.041826688 -0.035257973 0.09960783 -0.06568734 -0.008986853
0.008882987 -0.098153695 -0.05085547 0.058175735 -0.03746806 -0.024695046 0.043051194 0.09242468
0.0477134 -0.06098184 0.104953215 0.021454997 0.0645431 -0.04153468 0.023019822 0.048922554
-0.09969428 0.109797165 0.094440594 0.08600063 0.09290692 0.08531312 0.008457873 -0.013219231
-0.035797283 -0.005181385 -0.016435938 0.0786901 -0.08343904 -0.090067826 0.00832538 0.05097514
-0.065595195 -0.07277555 0.10221087 0.035930853 -0.022779662 0.05068644 0.01245725 -0.06611582
-0.05581682 0.08034588 0.08392469 0.10275287 0.109900564 -0.083454415 -0.08571211 0.047193456
-0.0290411 -0.018753769 0.09147235 0.055987153 0.01833181 -0.0949219 0.0764709 0.10169642
0.102476016 0.08583001 -0.036256146 0.0037563783 0.018555904 0.06669445 0.015647635 -0.0090175355
-0.02581802 0.008080255 0.034275085 -0.05385175 0.042551383 0.05130335 -0.09862647 -0.028532704
0.05175475 0.09700799 -0.07718554 0.021376442 0.02773349 -0.045016054 0.0019704166 -0.016548838
0.014783679 0.08508354 -0.03558198 0.10157909 -0.080354586 -0.056615096 0.029156141 0.05106586
-0.042914964 -0.082416445 -0.08165701 -0.083126284 -0.06467248 0.030160569 -0.10788293 0.051959984
-0.052939598 -0.097066194 -0.10373372 -0.03537153 -0.011147598 0.088561885 0.06455028 -0.05634357
-0.032977115 0.044525776 0.05420962 0.08672482 -0.0766325 -0.022032358 0.049498506 -0.08370424
0.07385027 0.11080073 0.07606361 -0.07177418 -0.05319894 -0.08662209 -0.11291072 0.084482245
0.026804594 0.038804296 -0.14263655 -0.084543295 -0.10027478 0.021362469 0.019090893 -0.025396317
-0.065555856 0.03514331 -0.03797728 -0.024796735 0.04936744 -0.08112065 0.076703794 0.05840269
-0.06636123 -0.01082832 0.063432276 0.055744506 -0.12359527 -0.040522978 -0.05373681 0.07205763
0.12699321 0.03290817 0.07131819 -0.030550472 0.018223895 -0.08515022 -0.019917252 0.06840481
0.024043828 0.111494824 -0.012288661 -0.103180476 0.05692245 -0.10121718 -0.09053763 -0.11409498
-0.12574399 0.034216568 0.06922934 -0.05441529 -0.09906294 0.025267292 0.06544005 -0.11508041
-0.033569545 -0.13236989 0.1010692 -0.05505967 -0.0781694 0.069510564 -0.102862485 -0.10434687
0.024886847 -0.1166097 -0.10853407 -0.012015165 -0.016849628 0.082655 0.033673182 0.012410021
0.053276822 0.023870308 -0.10901152 -0.077160075 -0.018179208 0.11788666 0.02911138 -0.078633584
0.08336197 -0.04556038 -0.100568764 -0.08982784 0.043977145 0.054522615 0.10483308 -0.031003619
0.028810646 0.01090368 -0.052578583 0.07924017 -0.020540262 0.06389967 0.077892855 -0.10971454
-0.064225785 -0.10861839 0.029037714 -0.11676693 -0.042513408 -0.08842848 -0.0023634194 -0.04478088
00000000: 3fa7 d63c 66b9 7a3d 8657 693d 8d4c e9bc
00000010: 7acf 7f3d 7709 183c 6804 00bc ccdf d53b
00000020: 8840 733d e42e ccbd a698 be3a 6d32 db3c
00000030: 9150 963c 1a90 babd 4eea c7bc 3d25 e2ba
00000040: ea8d 07bc 363a bcbd 758c 1a3d 91d8 acbd
00000050: daa5 773d adfa 853d 96e8 4b3d 1312 dd3d
00000060: f4ec 32bd a6a4 11bd 501d b83d 8971 c9bd
00000070: 2eac a4bd 42cf f93c 48f4 ef3c 4bea c63d
00000080: 7b90 893d a380 ad3d 7d81 c0bd 7652 2b3d
00000090: aa6a 10bd 31ff cb3d 1687 86bd 983d 13bc
000000a0: f389 113c ce04 c9bd d34d 50bd ae49 6e3d
000000b0: 1c78 19bd 444d cabc 7356 303d 2749 bd3d
000000c0: 206f 433d 18c8 79bd b6f1 d63d 64c2 af3c
000000d0: 2c2f 843d 4520 2abd 1194 bc3c 0463 483d
000000e0: 842c ccbd 56dd e03d 126a c13d 1921 b03d
000000f0: fc45 be3d a5b8 ae3d e492 0a3c 7995 58bc
00000100: 2ca0 12bd 9cc8 a9bb a9a4 86bc 4628 a13d
00000110: 16e2 aabd 7b75 b8bd 2d67 083c 4fcb 503d
00000120: c656 86bd 590b 95bd ef53 d13d 3b2c 133d
00000130: 6a9c babc 969c 4f3d 7e19 4c3c bb67 87bd
00000140: 2ea0 64bd 618c a43d b5e0 ab3d 1970 d23d
00000150: 8c13 e13d 26ea aabd d589 afbd ed4d 413d
00000160: 9ae7 edbc 81a1 99bc db55 bb3d c952 653d
00000170: 982c 963c 6a66 c2bd c69c 9c3d 3646 d03d
00000180: f2de d13d a5c7 af3d 5381 14bd 922d 763b
00000190: 8d02 983c 1a97 883d 782f 803c 49be 13bc
000001a0: 5080 d3bc 0c63 043c 0864 0c3d a793 5cbd
000001b0: 5c4a 2e3d 7623 523d adfc c9bd 6bbd e9bc
000001c0: cafc 533d 20ac c63d 7413 9ebd a61d af3c
000001d0: 5831 e33c c162 38bd 1b22 013b 6e91 87bc
000001e0: 3e37 723c 4740 ae3d 69be 11bd b308 d03d
000001f0: f290 a4bd 3be5 67bd dcd8 ee3c 6f2a 513d
00000200: 9ac7 2fbd f4c9 a8bd ca3b a7bd 1d3e aabd
00000210: 0173 84bd 4c13 f73c baf1 dcbd fed3 543d
00000220: 31d7 58bd a4ca c6bd 5872 d4bd bde1 10bd
00000230: 6aa4 36bc ef5f b53d f032 843d 84c8 66bd
00000240: 0313 07bd a960 363d e80a 5e3d c89c b13d
00000250: 80f1 9cbd 347d b4bc f2be 4a3d 216d abbd
00000260: cf3e 973d 7eeb e23d 3dc7 9b3d 57fe 92bd
00000270: 22e7 59bd ec66 b1bd bc3d e7bd 0705 ad3d
00000280: 4f95 db3c 41f1 1e3d 510f 12be 0925 adbd
00000290: dd5c cdbd 5800 af3c 8164 9c3c f00b d0bc
000002a0: 2642 86bd 6ef2 0f3d 108e 1bbd 8622 cbbc
000002b0: 8335 4a3d 9522 a6bd e116 9d3d a937 6f3d
000002c0: 66e8 87bd 4469 31bc c8e8 813d 5a54 643d
000002d0: 841f fdbd 6cfb 25bd 211b 5cbd f392 933d
000002e0: 820a 023e b8ca 063d 450f 923d fc44 fabc
000002f0: 474a 953c 3d63 aebd 8129 a3bc d217 8c3d
00000300: 90f7 c43c 6657 e43d 6156 49bc 4950 d3bd
00000310: 8427 693d f44a cfbd cb6b b9bd a1aa e9bd
00000320: 08c3 00be ac26 0c3d 1dc8 8d3d 91e2 5ebd
00000330: 83e1 cabd 5afd ce3c 6f05 863d 47af ebbd
00000340: 3880 09bd f98b 07be 5efd ce3d 4086 61bd
00000350: 4717 a0bd 8e5b 8e3d 91a9 d2bd d0b3 d5bd
00000360: 80df cb3c 11d1 eebd 1c47 debd 41db 44bc
00000370: 3b08 8abc 0647 a93d e4ec 093d 6753 4b3c
00000380: cc38 5a3d aa8b c33c 6f41 dfbd 1a06 9ebd
00000390: 90ec 94bc 906e f13d fd7a ee3c a50a a1bd
000003a0: aeb9 aa3d 859d 3abd fff6 cdbd a9f7 b7bd
000003b0: 6121 343d 1b53 5f3d bab2 d63d 4dfb fdbc
000003c0: 4e04 ec3c 59a5 323c a45c 57bd ac48 a23d
000003d0: 0d44 a8bc d5dd 823d 4a86 9f3d 04b2 e0bd
000003e0: cf88 83bd 5273 debd 80e0 ed3c 8023 efbd
000003f0: 8a22 2ebd fe19 b5bd 99e3 1abb 286c 37bd

conv1.bias f4 [64]
-0.12772056 -0.07798331 0.051113572 -0.031498443 -0.026319811 0.01432757 0.038592838 -0.036376823
0.0773496 -0.105789326 0.0083919605 0.069794536 0.071503684 -0.061578106 0.053896006 -0.03639744
-0.08957117 0.011881825 0.088638715 0.08903277 0.057807356 -0.08917262 0.019674921 0.080621265
0.021007981 -0.042425983 -0.004184699 0.05257034 -0.035278182 -0.004151571 0.055547122 -0.09950602
-0.012517102 0.0068965326 -0.007056546 -0.089565486 0.098014146 -0.1308516 0.09559791 -0.082711175
0.035619874 0.0103553645 0.08312976 0.032237906 0.01060354 0.07078124 0.073550746 -0.09229053
0.04039735 0.022700043 -0.03813724 -0.108081445 -0.04929467 0.06984468 0.012464855 -0.0022865597
0.00040168632 0.041182935 -0.06266715 0.059863508 0.033069868 0.04691669 -9.59628e-05 -0.057852987
00000000: 2ec9 02be b7b5 9fbd 775c 513d 8304 01bd
00000010: a59c d7bc 2fbe 6a3c 8613 1e3d ddff 14bd
00000020: 7869 9e3d 13a8 d8bd 6f7e 093c 70f0 8e3d
00000030: 8670 923d 5339 7cbd 0fc2 5c3d 7b15 15bd
00000040: 1771 b7bd fcab 423c 3788 b53d d056 b63d
00000050: 68c7 6c3d 22a0 b6bd 4d2d a13c c31c a53d
00000060: ee18 ac3c dec6 2dbd cd1f 89bb ff53 573d
00000070: db7f 10bd e709 88bb 6185 633d d0c9 cbbd
00000080: 8814 4dbc 4ffc e13b 993a e7bb 1c6e b7bd
00000090: a4bb c83d f6fd 05be d6c8 c33d 7a64 a9bd
000000a0: 25e6 113d 8ca9 293c f03f aa3d e50b 043d
000000b0: 78ba 2d3c c1f5 903d c6a1 963d d102 bdbd
000000c0: b177 253d 71f5 b93c cb35 1cbd ce59 ddbd
000000d0: 35e9 49bd ba0a 8f3d 6439 4c3c 1bda 15bb
000000e0: 6d99 d239 70af 283d a257 80bd 7033 753d
000000f0: 4574 073d b72b 403d a33f c9b8 41f7 6cbd

conv2.weight f4 [32, 64, 5, 5]
0.001699866 0.008761649 0.0030903872 0.0025644929 0.0148837725 -0.0295373 -0.032187946 -0.017863167
-0.0029882027 -0.0049862196 -0.026000617 -0.017086305 -0.0021040193 0.0051645776 -0.02511661 0.016074363
0.003689928 0.011699868 -0.0030336725 -0.014896312 -0.0021747518 0.0026240728 0.012975845 -0.016960101
-0.011712346 -0.0058850916 0.003071082 -0.02672347 0.012654892 0.011911047 0.010673168 -0.017568234
-0.0016615747 -0.004435319 -0.016564101 0.023499127 -0.011318643 0.014574288 -0.0009218186 0.022600424
0.020066133 -0.00517384 0.011817172 0.025081122 0.006520907 -0.017959485 -0.018292608 -0.026582832
0.011981761 0.0042029736 -0.0011803595 -0.0059214276 -0.029130308 -0.0021820664 -0.030285552 -0.0029460224
-0.027947852 -0.012229684 -0.024807451 -0.02922672 0.015026147 -0.03024251 0.014033818 0.015115533
0.0065893433 -0.0056156246 0.00460416 -0.024583267 -0.022160692 0.0031122295 -0.027485436 -0.0026067276
-0.0023598876 0.011605944 -0.0001068472 0.0070878747 -0.028353788 -0.032418307 0.013823349 -0.016739583
-0.017720882 -0.0019321938 0.008302519 -0.0013732938 0.007350154 0.0067657414 -0.022673886 -0.02237861
-0.016494568 0.016102308 -0.015622509 -0.029965814 0.0030814323 -0.0078046853 -0.016545475 -0.020028802
-0.008753788 -0.0006736785 -0.02854875 -0.0138630485 0.015784703 -0.010649216 -0.007954219 -0.0070026745
0.010768754 -0.01836122 -0.012745304 -0.020956626 0.011881421 0.004091349 0.0068875514 0.014610105
0.012147818 -0.0021905866 0.014285757 0.029079016 -0.004578193 -0.012867099 0.0017134334 -0.0027343223
-0.0035950984 -0.02061671 -0.006325217 -0.030449476 -0.021726673 -0.004709189 -0.028398162 -0.009667896
0.0038304057 0.0038595381 0.016095506 -0.029793683 -0.026430828 0.0027765282 0.010758589 -0.024410687
-0.0029109675 -0.022746084 -0.00019205864 0.0019988492 -0.009624123 -0.0061028646 -0.017194452 -0.028572565
0.009213198 0.012374404 0.0037510025 0.014694426 0.0024187183 -0.030750537 0.0035597845 -0.0023168095
-0.011188639 -0.008598376 -0.0174266 0.0098730605 -0.015139009 -0.014678252 -0.0013007168 -0.021860516
0.013468027 -0.013659983 0.013895608 -0.015311082 -0.015490408 0.012717509 -0.00080609694 0.012780552
-0.020359505 -0.0067912773 0.005383294 -0.026281817 -0.0058825756 -0.023316715 -0.0151139675 -0.004109423
0.0011583959 0.0022677223 -0.007551546 -0.004725616 -0.02644389 -0.024455305 -0.02779572 0.009951433
0.0040024994 -0.0023134367 0.0076001566 -0.026579503 0.014190755 -0.012998509 -0.02606004 0.013854372
-0.0015335544 -0.0027380732 0.009638929 0.011196177 -0.009848276 -0.006334564 0.004188458 -0.014746276
-0.013633286 -0.017645376 -0.0062316945 0.006950674 -0.026904492 -0.0042029326 -0.025363812 -0.015150376
0.000119507196 -0.017320707 -0.012278304 0.0066137104 -0.01933522 -0.0056161527 -0.004154069 -0.0074698133
-0.023562383 0.010714039 -0.028529085 -0.025667248 -0.0081852665 0.0077602607 0.0075637666 -0.024742803
0.0001606208 -0.018245604 0.014158848 -0.03114454 0.004006622 0.005242129 -0.020088568 -0.024966517
-0.015150468 0.017094105 -0.03090694 0.0088825645 -0.0059715295 -0.007585967 0.014803658 -0.025663896
-0.017697694 0.012676913 -0.007187636 0.011141513 -0.012460088 -0.024272254 0.015942978 -0.013034265
0.01821845 0.018509803 0.005820424 -0.0036633983 -0.00934696 -0.0028157295 -0.022350775 0.015861796
00000000: 0ace de3a 058d 0f3c 1888 4a3b 0d11 283b
00000010: 11db 733c 35f8 f1bc 82d7 03bd c755 92bc
00000020: b9d5 43bb 7163 a3bb 3fff d4bc 94f8 8bbc
00000030: 96e3 09bb 9e3b a93b 59c1 cdbc 62ae 833c
00000040: b8d2 713b ceb0 3f3c 94d0 46bb a90f 74bc
00000050: 4886 0ebb a3f8 2b3b a398 543c e9ef 8abc
00000060: 24e5 3fbc bad7 c0bb 3544 493b 2eeb dabc
00000070: 7756 4f3c 8d26 433c 83de 2e3c 42eb 8fbc
00000080: 32c9 d9ba 2756 91bb 70b1 87bc 3e81 c03c
00000090: d471 39bc ffc8 6e3c 33a6 71ba 8624 b93c
000000a0: bb61 a43c 5189 a9bb d09c 413c ed76 cd3c
000000b0: 55ad d53b c51f 93bc 61da 95bc 3dc4 d9bc
000000c0: 264f 443c 19b9 893b 4bb6 9aba 8908 c2bb
000000d0: afa2 eebc 0001 0fbb 6819 f8bc 0e12 41bb
000000e0: e5f2 e4bc 035f 48bc ff38 cbbc e06c efbc
000000f0: 3a30 763c 24bf f7bc 19ee 653c 24a7 773c
00000100: 6beb d73b 4603 b8bb 7ede 963b d962 c9bc
00000110: 578a b5bc 8cf6 4b3b 2329 e1bc a2d5 2abb
00000120: 58a8 1abb db26 3e3c 2713 e0b8 6741 e83b
00000130: 3446 e8bc 0fc9 04bd 547b 623c 7321 89bc
00000140: 622b 91bc aa41 fdba 4a07 083c 1800 b4ba
00000150: 90d9 f03b 27b3 dd3b 96be b9bc 5953 b7bc
00000160: 9e1f 87bc fde8 833c 8df5 7fbc de7a f5bc
00000170: dbf1 493b 72be ffbb 608a 87bc 7113 a4bc
00000180: 0c6c 0fbc cd99 30ba 11df e9bc d721 63bc
00000190: ec4e 813c 0d7a 2ebc 6a52 02bc b176 e5bb
000001a0: 6e6f 303c 456a 96bc aed1 50bc 3bad abbc
000001b0: 4baa 423c b910 863b f8b0 e13b 395f 6f3c
000001c0: a407 473c f28f 0fbb cf0e 6a3c 1e37 ee3c
000001d0: ab04 96bb 86d0 52bc 4995 e03a 5132 33bb
000001e0: be9b 6bbb 60e4 a8bc c443 cfbb 2e71 f9bc
000001f0: 23fc b1bc 8a4f 9abb 43a3 e8bc 1866 1ebc
00000200: 8b07 7b3b 4ef0 7c3b b9da 833c e211 f4bc
00000210: 7785 d8bc 6af6 353b cb44 303c ecf8 c7bc
00000220: eec5 3ebb ff55 babc 5963 49b9 20ff 023b
00000230: 7fae 1dbc 8afa c7bb 61db 8cbc 0311 eabc
00000240: f4f2 163c 03be 4a3c 61d3 753b e4c0 703c
00000250: 5c83 1e3b 8de8 fbbc 464b 693b 9dd5 17bb
00000260: 8e50 37bc 34e0 0cbc 3bc2 8ebc 9ec2 213c
00000270: 9b09 78bc 0d7d 70bc d07c aaba d314 b3bc
00000280: 00a9 5c3c 1fce 5fbc 67aa 633c 55db 7abc
00000290: 7bcb 7dbc 195d 503c 4050 53ba 8565 513c
000002a0: fac8 a6bc 5d89 debb 5866 b03b f74c d7bc
000002b0: 9fc2 c0bb b202 bfbc 93a0 77bc 57a8 86bb
000002c0: 51d5 973a 119e 143b f672 f7bb 57d9 9abb
000002d0: dba0 d8bc 7e56 c8bc dab3 e3bc 560b 233c
000002e0: 6627 833b 079d 17bb bc0a f93b 42bd d9bc
000002f0: 5780 683c b3f7 54bc dd7b d5bc 73fd 623c
00000300: 8c01 c9ba 3f71 33bb 99ec 1d3c 2c70 373c
00000310: aa5a 21bc 2d92 cfbb 553f 893b 5d9a 71bc
00000320: 255e 5fbc 098d 90bc 3e33 ccbb 7bc2 e33b
00000330: cf66 dcbc c1b8 89bb c5c7 cfbc 4839 78bc
00000340: f09f fa38 28e4 8dbc f12a 49bc d3b7 d83b
00000350: e564 9ebc b407 b8bb db1e 88bb 56c5 f4bb
00000360: e605 c1bc f089 2f3c d4b5 e9bc 1f44 d2bc
00000370: 7f1b 06bc c949 fe3b 79d9 f73b 6bb1 cabc
00000380: 516c 2839 ce77 95bc 83fa 673c d622 ffbc
00000390: fb49 833b 2ac6 ab3b c890 a4bc 9586 ccbc
000003a0: ab39 78bc f008 8c3c 8d30 fdbc 2d88 113c
000003b0: d2ac c3bb b493 f8bb 0b8b 723c 173d d2bc
000003c0: c1fa 90bc d4b2 4f3c 4386 ebbb e48a 363c
000003d0: 6625 4cbc 9bd6 c6bc d99a 823c ab8d 55bc
000003e0: dc3e 953c dfa1 973c 41b9 be3b a015 70bb
000003f0: fe23 19bc 1a88 38bb f918 b7bc 99f0 813c

conv2.bias f4 [32]
0.013074562 -0.0059907837 -0.0071839187 0.0041091074 -0.0041917544 -0.016164783 -0.00013525187 -0.015966054
0.011198868 -0.025619382 -0.0140561415 -0.020907152 0.0012969103 -0.00044182676 -0.016649436 -0.0041989707
0.014184774 -0.0048113503 -0.0044382256 -0.024886547 0.003939046 -0.0117628835 0.0042065685 -0.007905936
-0.02040527 -0.011846023 -0.005706118 0.022546649 0.007919353 0.022122353 0.012105383 -0.01839253
00000000: b036 563c 564e c4bb 1467 ebbb b1a5 863b
00000010: fc5a 89bb 026c 84bc 66d2 0db9 3ecb 82bc
00000020: 757b 373c bddf d1bc bb4b 66bc 7a45 abbc
00000030: 17fd a93a fca4 e7b9 6664 88bc 8597 89bb
00000040: 4167 683c 88a8 9dbb 896e 91bb dfde cbbc
00000050: 1d13 813b 1cb9 40bc 41d7 893b e687 01bc
00000060: f428 a7bc d215 42bc 63fa babb c0b3 b83c
00000070: 2dc0 013c f039 b53c a855 463c eeab 96bc

conv3.weight f4 [1, 32, 5, 5]
-0.016820533 0.013423824 0.03616647 -0.025463484 -0.009976247 -0.0027166645 0.017744238 0.014725632
-0.022019075 -0.008903361 -0.015219188 -0.0246745 -0.013553213 0.018701972 0.036357757 0.020278739
0.0064260345 0.036880728 -0.017523024 -0.01611856 -0.010109108 0.025353713 0.020573948 0.037127532
0.02193727 0.018999476 -0.000808074 0.030333998 0.00048437322 0.015730118 0.04139536 0.041497093
-0.0104688965 0.03670148 -0.004667489 -0.0010109413 -0.002484516 0.0023642515 0.010768121 -0.026363373
0.011951283 -0.01864296 -0.025270617 -0.0053645 0.006544392 -0.025758497 -0.006121712 0.015472415
-0.029555703 -0.008597643 -0.018071737 -0.0461186 -0.018914 0.019400718 0.0014554745 -0.008362449
-0.0038351754 0.0032402144 0.020389294 0.0069200937 -0.032701105 0.030115297 0.029821353 -0.00578823
-0.0052602645 -0.012461622 -0.023134593 0.021108104 0.01882564 0.039314866 0.021068899 -0.01080107
-0.03453967 0.030898493 0.006662106 -0.033154864 0.009687471 -0.03026593 0.025952294 0.030066742
-0.015834095 0.01830942 0.014652424 0.005925371 -0.020339407 0.007604302 0.0058580553 -0.003931804
0.017622964 0.028195638 -0.025724526 0.016991537 0.01565678 0.028486488 0.026871514 0.034395844
0.0068108914 0.019408848 -0.0065056263 0.009368841 -0.01598054 -0.0026545995 0.009611826 -0.025186945
0.011039094 -0.011729827 0.0030852586 0.0015781051 -0.009584321 0.016784051 -0.011783312 0.0068340176
-0.01840777 0.022661094 0.0014936497 0.0077014086 0.02020813 -0.027925767 0.01838289 -0.0027034474
-0.023888228 0.001128835 0.020659957 -0.019416826 -0.027680583 0.008491482 -0.0028154906 0.00406624
-0.011518258 0.02487564 0.035718072 -0.019041618 -0.015650446 -0.022901814 0.0121072745 -0.02099129
-0.013253795 -0.027729426 -0.0074018035 -0.008191435 -0.027610201 0.0078285895 -0.019838361 0.005950474
-0.02101613 0.02202916 0.024636535 0.0040200674 0.03047595 0.010244412 -0.003861033 0.027990716
0.03171619 0.0239527 -0.016575625 -0.01482154 -0.020315189 0.01171169 0.04823957 0.028204162
0.02224081 0.00868892 0.038505375 0.061309543 0.050481156 0.0039114566 -0.012518919 0.041732915
0.035307284 0.032325473 0.0013882942 -0.030017847 0.0013657282 0.02105887 -0.0038850198 -0.025199179
-0.011401681 0.008115533 0.027803544 -0.03382149 0.025341049 0.025639834 0.0009567191 -0.028153853
-0.031483006 -0.018365089 -0.012740141 -0.026199467 -0.006030919 0.017546717 -0.00774522 0.025776235
-0.0039708978 -0.011976133 -0.0032854436 -0.018955842 0.030377124 0.006903233 0.01160514 -0.0056277816
0.018743534 -0.005009789 0.028269768 0.027297301 0.004090823 -0.02336909 0.0045940396 0.017799012
0.018610414 -0.01946922 0.017508527 -0.039441004 -0.03933432 -0.016312294 -0.012156461 -0.008602528
0.025259906 -0.031662114 -0.01466387 0.023061031 -0.039555848 -0.002262084 0.022037843 -0.0011507097
-0.010011234 -0.024179023 -0.018731948 0.0061737583 0.012734076 -0.028799176 -0.028824255 -0.025017716
0.03832246 0.02123732 0.009125425 0.024774216 0.0019118867 -0.027819715 -0.020616313 0.01677608
0.007929106 0.02729107 -0.00640545 -0.0059099607 0.018087503 -0.01812035 0.021602552 0.019221244
-0.014232194 0.026974238 -0.028950194 0.007104068 -0.007738534 -0.002910841 -0.011512278 -0.00032284876
00000000: 37cb 89bc 99ef 5b3c 4b23 143d cc98 d0bc
00000010: 6a73 23bc 110a 32bb 5d5c 913c c743 713c
00000020: 5961 b4bc 67df 11bc e759 79bc 2d22 cabc
00000030: 4c0e 5ebc e134 993c dfeb 143d 991f a63c
00000040: 7c91 d23b 3f10 173d 728c 8fbc 120b 84bc
00000050: aca0 25bc 97b2 cf3c b28a a83c 0a13 183d
00000060: cab5 b33c caa4 9b3c eed4 53ba 017f f83c
00000070: 79f3 fd39 73dc 803c 2e8e 293d dbf8 293d
00000080: bc85 2bbc 4b54 163d bcf1 98bb 9081 84ba
00000090: 43d3 22bb 8ff1 1a3b c66c 303c 00f8 d7bc
000000a0: 50cf 433c 1fb9 98bc 5304 cfbc b0c8 afbb
000000b0: 5772 d63b 7c03 d3bc a498 c8bb 0380 7d3c
000000c0: cd1e f2bc 21dd 0cbc 2e0b 94bc dbe6 3cbd
000000d0: 88f1 9abc 41ee 9e3c 9fc5 be3a a702 09bc
000000e0: 9157 7bbb c759 543b 7307 a73c f4c1 e23b
000000f0: 98f1 05bd 5bb4 f63c e94b f43c 31ab bdbb
00000100: 4c5e acbb d52b 4cbc c284 bdbc e7ea ac3c
00000110: 3b38 9a3c a008 213d af98 ac3c f9f6 30bc
00000120: 7879 0dbd d61e fd3c cc4d da3b 65cd 07bd
00000130: 33b8 1e3c 41f0 f7bc e899 d43c 874e f63c
00000140: 81b6 81bc a3fd 953c b810 703c 9d29 c23b
00000150: d49e a6bc 822d f93b eef4 bf3b 5dd6 80bb
00000160: 095e 903c 8afa e63c 3ebc d2bc d631 8b3c
00000170: a642 803c 7f5c e93c a621 dc3c a8e2 0c3d
00000180: e62d df3b 4eff 9e3c 262d d5bb c47f 193c
00000190: 9fe9 82bc caf8 2dbb ec7a 1d3c da54 cebc
000001a0: 51dd 343c 762e 40bc 0d32 4a3b 6cd8 ce3a
000001b0: 8e07 1dbc b57e 893c cb0e 41bc e5ef df3b
000001c0: e4cb 96bc c2a3 b93c 91c6 c33a 195c fc3b
000001d0: 858b a53c 94c4 e4bc b797 963c 522c 31bb
000001e0: 3fb1 c3bc 6bf5 933a 123f a93c 0910 9fbc
000001f0: 64c2 e2bc db1f 0b3c 1884 38bb 183e 853b
00000200: 13b7 3cbc 00c8 cb3c 1d4d 123d 2bfd 9bbc
00000210: 5d35 80bc 969c bbbc 975d 463c edf5 abbc
00000220: 7226 59bc d228 e3bc d48a f2bb 5e35 06bc
00000230: ca2e e2bc 7c43 003c 0f84 a2bc 32fc c23b
00000240: 052a acbc 7f76 b43c 8fd2 c93c c5ba 833b
00000250: b3a8 f93c 2ed8 273c 6209 7dbb c94c e53c
00000260: d6e8 013d 7438 c43c 9bc9 87bc 0bd6 72bc
00000270: 0a6c a6bc 63e2 3f3c db96 453d 6a0c e73c
00000280: 5c32 b63c f95b 0e3c d0b7 1d3d b71f 7b3d
00000290: 54c5 4e3d ad2b 803b 271c 4dbc 22f0 2a3d
000002a0: 5f9e 103d b767 043d 6cf7 b53a fde7 f5bc
000002b0: 3c02 b33a a783 ac3c d19b 7ebb 826e cebc
000002c0: 1ece 3abc 03f7 043c 42c4 e33c 6788 0abd
000002d0: 0898 cf3c a10a d23c 55cc 7a3a e9a2 e6bc
000002e0: 53f4 00bd 6272 96bc 06bc 50bc 44a0 d6bc
000002f0: 049f c5bb 22be 8f3c 9dcb fdbb af28 d33c
00000300: 4e1e 82bb 8b37 44bc 9950 57bb 4849 9bbc
00000310: 72d9 f83c 8434 e23b 7c23 3e3c 4169 b8bb
00000320: 0a8c 993c 2829 a4bb 0096 e73c 979e df3c
00000330: 4f0c 863b 8970 bfbc 9989 963b 3ccf 913c
00000340: de74 983c ea7d 9fbc 0b6e 8f3c e48c 21bd
00000350: 061d 21bd 5ca1 85bc e52b 47bc 9ef1 0cbc
00000360: dded ce3c 22b0 01bd bb40 70bc 7dea bc3c
00000370: 5005 22bd 793f 14bb b588 b43c 69d3 96ba
00000380: 2906 24bc 1613 c6bc be73 99bc 3d4d ca3b
00000390: 96a2 503c 40ec ebbc d820 ecbc f4f1 ccbc
000003a0: 03f8 1c3d e3f9 ad3c ce82 153c 4cf3 ca3c
000003b0: 4698 fa3a 2ce6 e3bc 8be3 a8bc fd6d 893c
000003c0: 15e9 013c 8691 df3c cfe4 d1bb 58a8 c1bb
000003d0: 3e2c 943c 2171 94bc d6f7 b03c df75 9d3c
000003e0: 262e 69bc 14f9 dc3c f528 edbc 3ec9 e83b
000003f0: 8793 fdbb cfc3 3ebb fe9d 3cbc 0744 a9b9
