Task3 - SuperResolution/best_model_Superres.pth (torch, 921497 bytes, 59 tensors)

conv_1.weight f4 [44, 1, 3, 3]
-0.17760493 -0.04034946 0.08412573 -0.16382234 0.28960222 0.17649975 -0.146434 -0.04670957
-0.08021283 -0.06818403 0.15912235 0.13537519 0.31261563 0.12167286 0.15808852 -0.26865256
0.011560159 0.20370306 -0.25022358 0.24306975 0.05620343 0.30128565 0.1103777 0.12818165
0.198217 0.1259153 0.28461513 0.20378847 0.11371242 -0.12882458 -0.12801747 0.29385963
-0.32085192 -0.151486 0.19784366 0.28860882 -0.102914 -0.23181719 0.23137093 0.064228795
0.2731151 0.022985468 0.01820143 -0.19710001 0.2155588 0.2050799 -0.07954232 0.022151913
-0.30028898 -0.26257327 0.064256586 -0.037663296 0.2630587 0.048223887 0.060742214 -0.023155626
-0.18363789 -0.18897781 0.35453132 0.034601312 0.22325987 0.058005244 -0.2770176 -0.2585579
-0.120443635 0.044480633 0.20241457 0.11812669 0.022611843 -0.18459928 0.048061665 -0.038070645
-0.24584214 -0.21341929 0.19018777 -0.07413224 -0.3410146 -0.20423475 0.17321643 0.07479571
0.007234091 -0.24376711 0.28231576 0.23636582 0.18684927 -0.15772735 -0.2840108 -0.08804416
0.17630666 -0.011024133 -0.3426128 -0.12371753 0.058642633 0.2998367 -0.28673053 0.055356544
0.26893392 -0.089835 0.28195342 0.085115544 -0.31685695 0.062984414 0.05653354 0.19096039
0.18170309 0.2868686 -0.19030093 0.115693465 -0.24420035 -0.055190023 0.1077281 0.24860139
0.030101173 0.07113345 0.047859326 0.052209415 -0.16971104 0.29686883 -0.1548736 -0.023004152
-0.2508367 0.1783852 -0.16878736 -0.06589637 0.28685823 0.04495821 -0.09395416 -0.17685091
-0.27657852 0.34557477 0.124884844 0.16970971 -0.20752533 0.031174248 -0.21206364 -0.22085886
-0.20053299 -0.030575026 -0.023229927 -0.11536111 -0.13864727 -0.15410289 -0.19434091 -0.076326944
-0.017503811 0.2670112 0.22112596 0.00061405293 0.17998366 0.1634287 -0.14820205 0.023623474
-0.2701972 0.1424541 -0.20378077 -0.0478982 -0.27305332 -0.28158224 -0.31848302 0.2775573
-0.18544236 -0.2100766 -0.12499529 0.14185563 0.28564999 0.23087005 0.1923145 0.0009198729
0.19580503 0.07943868 -0.046085134 -0.024554448 -0.16682202 0.1236237 -0.008830019 0.3242852
-0.27096924 -0.261606 -0.14647372 -0.051698923 -0.2407665 0.043507367 -0.06970924 0.28650856
-0.11303479 0.30430007 -0.032254633 -0.27235064 -0.24651776 0.1477263 -0.018225519 -0.28913677
-0.033758767 -0.08509332 0.044449456 -0.047051534 0.07888935 0.17766719 -0.1630349 -0.28567398
0.30241913 0.021046612 -0.25997734 -0.21244287 0.026137732 0.3415773 -0.017310318 0.14999586
0.15551957 -0.11070653 -0.32513097 0.26994163 0.2300796 -0.15453076 -0.06899063 0.08493376
-0.18507606 0.13013797 -0.15213694 -0.14644688 -0.14589256 0.2970478 0.025016287 0.23839998
-0.22297718 0.30302373 -0.3230692 -0.10435933 -0.10061282 -0.040112346 -0.2708507 -0.020103615
0.220093 -0.16801096 0.098495714 -0.31332034 0.18219884 0.107583165 0.034133755 0.2959905
-0.12692104 0.13638964 -0.13378343 0.13975695 -0.32742232 0.08145392 0.08752342 0.31443915
0.25959563 -0.19131525 0.16937414 -0.18559839 -0.17230359 0.08734109 0.0854493 -0.09123892
00000000: 11de 35be 7a45 25bd 1c4a ac3d 0bc1 27be
00000010: be46 943e 5abc 343e cbf2 15be 8952 3fbd
00000020: a046 a4bd 12a4 8bbd f8f0 223e cb9f 0a3e
00000030: 280f a03e 9f2f f93d f5e1 213e d48c 89be
00000040: d266 3d3c 8997 503e 4e1d 80be 47e7 783e
00000050: 9135 663d 1d42 9a3e b40d e23d 0d42 033e
00000060: 66f9 4a3e f1ef 003e 13b9 913e edad 503e
00000070: 0fe2 e83d 97ea 03be 0317 03be c574 963e
00000080: b446 a4be 251f 1bbe 8797 4a3e 89c4 933e
00000090: 93c4 d2bd 7c61 6dbe 80ec 6c3e 638a 833d
000000a0: bed5 8b3e 054c bc3c 2a1b 953c 96d4 49be
000000b0: 72bb 5c3e 7700 523e 15e7 a2bd ee77 b53c
000000c0: 7abf 99be 0170 86be f598 833d d444 1abd
000000d0: a1af 863e 6986 453d d4cc 783d deb0 bdbc
000000e0: 920b 3cbe 6683 41be 2185 b53e 1bba 0d3d
000000f0: 3c9e 643e e896 6d3d 40d5 8dbe b361 84be
00000100: 27ab f6bd 5331 363d c445 4f3e 68ec f13d
00000110: 793c b93c 9807 3dbe 4fdc 443d f7ef 1bbd
00000120: 0bbe 7bbe 968a 5abe 95c0 423e a5d2 97bd
00000130: 7799 aebe ea22 51be a65f 313e 7e2e 993d
00000140: f40b ed3b 169e 79be b18b 903e e209 723e
00000150: 6a55 3f3e 4783 21be dd69 91be 7f50 b4bd
00000160: bc89 343e 919e 34bc f26a afbe 9e5f fdbd
00000170: 4233 703d 3284 993e 58ce 92be 8bbd 623d
00000180: b5b1 893e 6afb b7bd 335c 903e 0f51 ae3d
00000190: 133b a2be f9fd 803d b78f 673d 1f8b 433e
000001a0: 6010 3a3e 71e0 923e 3fde 42be b2f0 ec3d
000001b0: a80f 7abe ef0e 62bd 8da0 dc3d 5d91 7e3e
000001c0: bc96 f63c 6aae 913d 2408 443d 8ad9 553d
000001d0: bbc8 2dbe 31ff 973e 2f97 1ebe 3473 bcbc
000001e0: ab6d 80be 9caa 363e 98d6 2cbe adf4 86bd
000001f0: 15df 923e 1a26 383d 0a6b c0bd 6818 35be
00000200: b39b 8dbe 2def b03e a0c3 ff3d 62c8 2d3e
00000210: 8581 54be 2361 ff3c 3627 59be d328 62be
00000220: 8558 4dbe 7a78 fabc b04c bebc 7242 ecbd
00000230: 8df9 0dbe 26cd 1dbe 4e01 47be 4d51 9cbd
00000240: 2764 8fbc b1b5 883e d86e 623e 65f8 203a
00000250: a34d 383e da59 273e 47c2 17be 0486 c13c
00000260: 4a57 8abe 7ddf 113e e8ab 50be e730 44bd
00000270: a5cd 8bbe 8c2b 90be 3510 a3be fe1b 8e3e
00000280: 9ae4 3dbe 521e 57be 88fd ffbd 9a42 113e
00000290: b740 923e 3369 6c3e 18ee 443e a023 713a
000002a0: 1d81 483e bfb0 a23d c4c3 3cbd 6926 c9bc
000002b0: 64d3 2abe 6c2e fd3d c9ab 10bc b608 a63e
000002c0: 7bbc 8abe 39f1 85be 35fd 15be 40c2 53bd
000002d0: 7e8b 76be c834 323d b8c3 8ebd 40b1 923e
000002e0: c97e e7bd 38cd 9b3e 6f1d 04bd 8b71 8bbe
000002f0: 276f 7cbe 9045 173e af4d 95bc bc09 94be
00000300: a246 0abd 6845 aebd a210 363d 1cb9 40bd
00000310: bd90 a13d 63ee 353e 9ff2 26be dc43 92be
00000320: aed6 9a3e f269 ac3c c01b 85be a08a 59be
00000330: cc1e d63c 38e3 ae3e 5ece 8dbc 8498 193e
00000340: 8640 1f3e 1bba e2bd 9177 a6be ca35 8a3e
00000350: fd99 6b3e 503d 1ebe f64a 8dbd c0f1 ad3d
00000360: 9484 3dbe e342 053e c9c9 1bbe 2cf6 15be
00000370: dc64 15be a616 983e f5ee cc3c 201f 743e
00000380: 2154 64be ed25 9b3e 5469 a5be 58ba d5bd
00000390: 180e cebd d84c 24bd f1ac 8abe 56b0 a4bc
000003a0: 0f60 613e 110b 2cbe 1fb8 c93d 866b a0be
000003b0: 5592 3a3e 9054 dc3d d6cf 0b3d 118c 973e
000003c0: 97f7 01be baa9 0b3e 86fe 08be 721c 0f3e
000003d0: e6a3 a7be 50d1 a63d 7b3f b33d 2bfe a03e
000003e0: b8e9 843e 25e8 43be 6a70 2d3e 810d 3ebe
000003f0: 5a70 30be e3df b23d 0b00 af3d 79db babd

block_1.c1_r.weight f4 [38, 44, 3, 3]
0.0016419697 0.012407417 -0.009307302 -0.024248198 0.04529547 -0.01591335 0.020207668 0.013235236
-0.007830041 0.0395684 -0.040433872 0.050440453 0.012495232 0.037933864 0.040868882 0.010679239
-0.007365029 -0.0154064065 -0.010146978 -0.03459756 -0.0425839 -0.005749172 -0.024226708 0.052002605
0.042963143 0.0033230088 0.012904559 0.016866948 -0.017843733 0.024825241 -0.039762326 -0.04630901
0.04698538 -0.0063820793 0.011124267 0.03190684 -0.03920079 0.0033803796 -0.026612997 0.02275579
0.026760906 0.0018292452 0.0012380912 -0.025887102 -0.0020721632 -0.028989691 0.0055928607 0.037924636
0.037744205 -0.037352856 -0.043933425 0.008406881 0.0028367485 -0.04568524 0.04810615 0.00563237
-0.036276486 0.079378314 -0.009114576 -0.04115768 0.008032494 -0.03398042 0.0008038285 -0.052987263
0.020709235 0.0014430449 -0.04021993 -0.04104899 0.0062105544 0.009616239 -0.00414874 -0.02281357
-0.027175788 -0.030340033 -0.04057375 0.0366547 -0.020707222 0.026216619 0.004055531 -0.00894922
-0.046324633 -0.01397453 -0.016902285 0.00034658585 -0.052072994 -0.029330915 0.0029626961 -0.030677471
0.03672984 0.023756234 0.023318067 0.042623945 0.027990334 -0.05209313 -0.009158593 0.046310622
-0.01903959 0.020972429 -0.0042693065 -0.027206514 -0.011855491 -0.023223395 0.036011253 -0.013033529
0.036721125 -0.030811312 0.020569995 -0.004031212 -0.03715451 0.0029703712 0.034025688 0.0026454362
0.05974409 0.009030449 -0.011196975 -0.019792596 -0.010839494 0.045300946 0.013763283 -0.016395293
0.0016270162 0.028989634 -0.019427095 -0.02719274 0.027172264 -0.020437988 0.022767438 -0.005442666
0.027151266 -0.030399706 -0.019589694 -0.032699548 0.03475674 0.048814278 0.008256426 -0.055848554
0.014106869 -0.04297638 0.012620535 0.01186415 0.03432485 -0.0049623083 -0.024156757 0.018451072
-0.030667154 -0.045227103 -0.04644649 0.0052727237 -0.03371193 0.010798286 -0.012664592 -0.018623382
0.010061745 0.050571483 0.009966683 0.016444689 -0.033462945 -0.018108776 -0.004103945 0.051046237
-0.036075562 0.004065893 0.0009138952 -0.033875417 0.040680196 -0.021445176 -0.039900538 -0.04685714
-0.003522951 0.0056832414 0.029330801 -0.03436687 0.012337309 -0.046192225 0.0036009753 -0.014211919
0.015856143 -0.010807241 0.019495435 -0.018037025 0.008391144 -0.042236183 -0.052884243 -0.043343287
0.009311347 0.024823327 -0.033027254 -0.024952186 -0.017447008 0.06951133 0.052906744 0.050754983
0.027120426 -0.0050384095 0.02032991 -0.018355433 -0.044354636 -0.023045141 -0.041317258 0.039144486
-0.026820028 0.009835617 -0.027777566 0.03404807 -0.02435982 -0.02666893 0.007052167 0.038520854
-0.020592453 0.0033776462 -0.006774451 0.013743672 -0.0022923807 -0.027493695 0.035437062 -0.01657417
0.031502422 -0.0043450682 0.028182385 0.054369286 -0.034947414 -0.03259376 -0.016114635 0.007888042
-0.0053182826 0.023607003 -0.0077315704 -0.020591658 0.009143255 -0.048882026 -0.03229722 -0.032328863
-0.029763615 -0.016703345 0.0029522155 -0.036276244 -0.0038496447 0.027437054 0.0071565513 0.06494981
-0.009784758 0.040387962 -0.031344682 0.044315245 0.0057769343 0.01987715 0.012946323 0.03415401
-0.0020773243 0.005353391 -0.018579153 0.006950797 0.044448268 0.053819194 -0.002180636 0.0017140672
00000000: 5c37 d73a 7b48 4b3c a77d 18bc 28a4 c6bc
00000010: be87 393d b75c 82bc 8d8a a53c 9ad8 583c
00000020: 9349 00bc 7912 223d fd9d 25bd a69a 4e3d
00000030: cdb8 4c3c 8a60 1b3d 2166 273d faf7 2e3c
00000040: 5756 f1bb 276b 7cbc 833f 26bc 2cb6 0dbd
00000050: 756c 2ebd 8d63 bcbb 1777 c6bc af00 553d
00000060: 1ffa 2f3d d6c6 593b a56d 533c 8e2c 8a3c
00000070: 052d 92bc 4e5e cb3c d2dd 22bd 84ae 3dbd
00000080: be73 403d c320 d1bb 8f42 363c bfb0 023d
00000090: 0291 20bd 5c89 5d3b 8003 dabc 5a6a ba3c
000000a0: b039 db3c 49c3 ef3a 7247 a23a 3011 d4bc
000000b0: 21cd 07bb ca7b edbc 5144 b73b dd56 1b3d
000000c0: ab99 1a3d 4fff 18bd 89f3 33bd 04bd 093c
000000d0: bee8 393b 7220 3bbd f40a 453d be8f b83b
000000e0: a796 14bd 1991 a23d 4d55 15bc f594 28bd
000000f0: b99a 033c 0e2f 0bbd 04b8 523a 2c09 59bd
00000100: 6aa6 a93c 8d24 bd3a a7bd 24bd fc22 28bd
00000110: e881 cb3b 6e8d 1d3c 27f2 87bb 86e3 babc
00000120: c29f debc a98b f8bc a930 26bd 3d23 163d
00000130: 31a2 a9bc 3cc4 d63c 43e4 843b c09f 12bc
00000140: e6be 3dbd 6df5 64bc a976 8abc f7b5 b539
00000150: 7e4a 55bd 6347 f0bc cb29 423b 524f fbbc
00000160: 0772 163d 6f9c c23c 8805 bf3c 7296 2e3d
00000170: fc4b e53c 9b5f 55bd ec0d 16bc 35b0 3d3d
00000180: eaf8 9bbc 5fce ab3c 8ae5 8bbb 32e0 debc
00000190: 893d 42bc fd3e bebc 8980 133d 958a 55bc
000001a0: e468 163d 0168 fcbc 6882 a83c 4218 84bb
000001b0: 542f 18bd 8faa 423b 855e 0b3d 0e5f 2d3b
000001c0: 38b6 743d 73f4 133c 8473 37bc 1524 a2bc
000001d0: 2298 31bc 7c8d 393d 657f 613c 6c4f 86bc
000001e0: 9b41 d53a ab7b ed3c 9225 9fbc 4fc3 debc
000001f0: 5e98 de3c 916d a7bc c782 ba3c 6458 b2bb
00000200: 556c de3c ce08 f9bc 917a a0bc f6ef 05bd
00000210: 155d 0e3d 7bf1 473d f645 073c 74c1 64bd
00000220: 7f20 673c 0008 30bd 5cc6 4e3c da61 423c
00000230: 3798 0c3d dc9a a2bb 64e4 c5bc b426 973c
00000240: af39 fbbc 0e40 39bd ad3e 3ebd d0c6 ac3b
00000250: 8515 0abd 4beb 303c 267f 4fbc 1090 98bc
00000260: 04da 243c 0b24 4f3d 4c4b 233c 03b7 863c
00000270: 7110 09bd db58 94bc 637a 86bb dc15 513d
00000280: f8c3 13bd 2f3b 853b 7892 6f3a f3c0 0abd
00000290: 47a0 263d cbad afbc bf6e 23bd 46ed 3fbd
000002a0: 4fe1 66bb 7c3a ba3b 2647 f03c 46c4 0cbd
000002b0: 6d22 4a3c 0f34 3dbd 57fe 6b3b 1cd9 68bc
000002c0: bee4 813c db10 31bc e4b4 9f3c 62c2 93bc
000002d0: 027b 093c d9ff 2cbd 269d 58bd bb88 31bd
000002e0: 9f8e 183c 4a5a cb3c 9647 07bd 8768 ccbc
000002f0: 07ed 8ebc f55b 8e3d beb4 583d 75e4 4f3d
00000300: a82b de3c 3e19 a5bb e98a a63c 225e 96bc
00000310: 35ad 35bd 2ac9 bcbc 493c 29bd f855 203d
00000320: adb5 dbbc 9125 213c c78d e3bc fd75 0b3d
00000330: 3f8e c7bc cd78 dabc dd15 e73b 0bc8 1d3d
00000340: 81b1 a8bc 805b 5d3b 37fc ddbb 232d 613c
00000350: c43b 16bb 753a e1bc 7426 113d 8ec6 87bc
00000360: af08 013d 1361 8ebb bfde e63c 54b2 5e3d
00000370: 0525 0fbd 0981 05bd d702 84bc d93c 013c
00000380: fd44 aebb 7963 c13c 1d59 fdbb d6af a8bc
00000390: 97cd 153c 8538 48bd 174a 04bd 456b 04bd
000003a0: d3d2 f3bc 74d5 88bc f579 413b 6696 14bd
000003b0: 524a 7cbb acc3 e03c 8181 ea3b 6804 853d
000003c0: 4050 20bc d96d 253d 4863 00bd e783 353d
000003d0: 704c bd3b 68d5 a23c d01c 543c 13e5 0b3d
000003e0: b823 08bb 806b af3b 4f33 98bc 83c3 e33b
000003f0: 630f 363d 8471 5c3d 00e9 0ebb 8daa e03a

block_1.c2_r.weight f4 [38, 38, 3, 3]
0.003362994 0.00026819715 -0.053283352 0.03036071 -0.015889889 -0.006488123 -0.023149675 -0.026041044
-0.053670675 -0.021543832 -0.009308608 -0.073395826 0.03326744 -0.009515269 0.030496664 0.016392935
0.020069541 -0.029155083 -0.002310107 -0.008086223 -0.076229624 0.017084785 0.014693986 -0.04770196
0.011023749 -0.06596796 0.02614674 0.043135975 0.014354024 0.013050273 -0.031612936 0.028050354
0.05432807 0.04763809 0.027694793 0.031140909 -0.02803895 -0.03275585 -0.037767157 0.058195695
-0.018532436 -0.04346949 0.034189776 -0.029205909 0.011414421 0.011881524 0.066022046 -0.06097821
-0.019912066 0.03780567 0.08908358 0.0054552355 0.06524987 -0.02485022 0.03926403 0.05529081
0.011149788 0.058275443 -0.0075565744 0.0436576 -0.01944029 -0.009210535 0.022635741 0.05029801
0.049670946 -0.0067804838 -0.037012633 0.0016747494 -0.04047139 -0.014067024 -0.04092749 0.0063197557
0.031002646 0.0049331873 -0.03458906 0.042349283 0.048403785 0.02807139 0.052165266 -0.04528861
-0.06104415 0.03422282 0.010485173 -0.055998232 0.066537105 0.051553994 -0.0043099704 0.033609185
0.03330563 0.042694412 0.037740637 -0.034954187 -0.05394054 0.023927404 0.035875227 0.046283904
0.006585623 0.02012512 0.030335695 -0.00403805 0.018363947 0.028469833 0.056513418 0.03855836
-0.023309624 0.050141785 0.057092432 0.0010653649 0.07477469 -0.021488186 -0.015485948 -0.015980143
0.017565481 -0.00997301 0.017008666 0.034014385 0.000102315484 -0.022688951 -0.024645405 -0.07754719
0.03200459 -0.03264075 0.0702782 -0.037669465 0.01709526 -0.08130152 0.014526642 -0.027787007
0.026595658 -0.054648466 0.017012123 0.054458193 0.020491853 -0.037411306 0.056541786 -0.03259844
-0.04826568 -0.06157687 0.07290184 -0.017025923 0.0013839963 0.03709511 -0.027613543 -0.041292045
0.047079816 -0.041131377 -0.01604948 -0.047707576 -0.047823388 0.05627535 -0.036788646 0.04944139
0.009600677 0.056256596 0.024577167 -0.025565023 0.032193862 -0.017069316 -0.00012114919 -0.03543135
-0.025474627 -0.030319074 0.06342002 -0.00021184895 -0.058409214 -0.00553526 0.0085975295 -0.042559303
-0.015672317 0.026286123 -0.0029687176 -0.026802495 -0.07768352 -0.12645504 -0.016567502 -0.039407976
-0.14184251 -0.02672878 -0.08527859 -0.001960199 -0.017670905 0.02566845 0.050471902 0.0399483
-0.025268547 -0.010779949 -0.022368066 0.005665505 0.03344434 0.049230453 0.020222224 0.024779597
-0.0028517488 0.050776318 -0.009146643 -0.043241713 -0.015693596 -0.00051345845 -0.048490133 -0.010177984
-0.0008145969 -0.02329019 -0.0486504 -0.043481804 -0.024340637 0.047345217 -0.037470657 0.0015883818
-0.0033902966 0.0033048014 -0.005172879 0.023761684 -0.033828773 0.0109307375 0.007946522 -0.02464543
0.020779764 0.077315666 -0.055613708 0.02238229 0.014700906 0.0631422 -0.067998156 0.033842746
-0.018328717 -0.05055436 -0.024158496 0.036946207 0.024373498 -0.026547974 0.06090467 -0.038974702
-0.035313673 0.022498975 0.039134476 0.025566695 -0.023824183 -0.036759257 -0.033573408 0.01392637
0.027030418 0.045077454 -0.028449332 0.013368578 -0.01315576 0.01509263 0.046623725 -0.016730033
-0.024265151 -0.04708485 0.019221395 -0.041116957 -0.020847319 0.09293876 -0.01798026 -0.017454725
00000000: ad65 5c3b d09c 8c39 a53f 5abd 06b7 f83c
00000010: 832b 82bc 529a d4bb 63a4 bdbc 0754 d5bc
00000020: c8d5 5bbd b17c b0bc 2283 18bc 8d50 96bd
00000030: 7043 083d eee5 1bbc 24d4 f93c 7a4a 863c
00000040: e168 a43c a4d6 eebc 2a65 17bb 147c 04bc
00000050: 471e 9cbd 64f5 8b3c 0bbf 703c 2163 43bd
00000060: f49c 343c 361a 87bd b031 d63c 59af 303d
00000070: 242d 6b3c d0d0 553c 917c 01bd dbc9 e53c
00000080: 1c87 5e3d 2820 433d 31e0 e23c 381b ff3c
00000090: f1b1 e5bc 002b 06bd bcb1 1abd 9c5e 6e3d
000000a0: 56d1 97bc 100d 32bd 940a 0c3d 3b41 efbc
000000b0: 8d03 3b3c b9aa 423c 9136 873d 4ac4 79bd
000000c0: a11e a3bc 1eda 1a3d 7471 b63d d5c1 b23b
000000d0: b9a1 853d b092 cbbc 52d3 203d 9e78 623d
000000e0: 9aad 363c 3bb2 6e3d 249d f7bb 50d2 323d
000000f0: 3e41 9fbc c9e7 16bc 976e b93c 4905 4e3d
00000100: c373 4b3d d22e debb 8f9a 17bd 4483 db3a
00000110: 54c5 25bd 6079 66bc 95a3 27bd f415 cf3b
00000120: 43f9 fd3c 93a6 a13b 42ad 0dbd 7176 2d3d
00000130: 0c43 463d f9f5 e53c 3fab 553d 8d80 39bd
00000140: 6e09 7abd 3a2d 0c3d 01ca 2b3c 675e 65bd
00000150: 9b44 883d 482a 533d a73a 8dbb c9a9 093d
00000160: 7c6b 083d 56e0 2e3d ed95 1a3d 1f2c 0fbd
00000170: c1f0 5cbd 6703 c43c e7f1 123d 3194 3d3d
00000180: 36cc d73b 70dd a43c 9082 f83c 9e51 84bb
00000190: fd6f 963c 9139 e93c 9d7a 673d 5fef 1d3d
000001a0: d3f3 bebc 7961 4d3d c1d9 693d b7a3 8b3a
000001b0: 7923 993d fe07 b0bc c6b8 7dbc cae8 82bc
000001c0: 7ce5 8f3c d665 23bc c255 8b3c ab52 0b3d
000001d0: 3592 d638 2ede b9bc 29e5 c9bc 10d1 9ebd
000001e0: 3f17 033d 4fb2 05bd 04ee 8f3d 4c4b 1abd
000001f0: 5c0b 8c3c 6981 a6bd 2701 6e3c 94a1 e3bc
00000200: 23df d93c 12d7 5fbd 025d 8b3c 8e0f 5f3d
00000210: 88de a73c 993c 19bd 5c98 673d f185 05bd
00000220: 3cb2 45bd 0738 7cbd 8f4d 953d f379 8bbc
00000230: 3667 b53a 0bf1 173d cc35 e2bc d921 29bd
00000240: c4d6 403d 6079 28bd 337a 83bc 0569 43bd
00000250: 75e2 43bd fb80 663d b1af 16bd 0e83 4a3d
00000260: 284c 1d3c 516d 663d 0e56 c93c bd6d d1bc
00000270: b6dd 033d f3d4 8bbc 7a11 feb8 7720 11bd
00000280: 2ab0 d0bc b55f f8bc 5be2 813d c523 5eb9
00000290: 803e 6fbd 2061 b5bb a7dc 0c3c aa52 2ebd
000002a0: 3b63 80bc ff55 d73c d18e 42bb e890 dbbc
000002b0: 8a18 9fbd 6e7d 01be 92b8 87bc 426a 21bd
000002c0: 2a3f 11be 50f6 dabc 8ba6 aebd af76 00bb
000002d0: 93c2 90bc a446 d23c a0bb 4e3d d4a0 233d
000002e0: fcff cebc 629e 30bc 3c3d b7bc b3a5 b93b
000002f0: effc 083d dfa5 493d 14a9 a53c 95fe ca3c
00000300: 68e4 3abb d4fa 4f3d cddb 15bc 391e 31bd
00000310: db8f 80bc 9d99 06ba 979d 46bd 8fc1 26bc
00000320: ac8a 55ba 12cb bebc a445 47bd fa19 32bd
00000330: 0466 c7bc 0fed 413d d57a 19bd 4031 d03a
00000340: bd2f 5ebb 5e95 583b 4181 a9bb dda7 c23c
00000350: 0a90 0abd d616 333c 2132 023c 36e5 c9bc
00000360: 533a aa3c ad57 9e3d 33cb 63bd 105b b73c
00000370: 12dc 703c b350 813d 9e42 8bbd b19e 0a3d
00000380: 1b26 96bc 1712 4fbd 0ae8 c5bc e854 173d
00000390: eeaa c73c 237b d9bc 2d77 793d f0a3 1fbd
000003a0: 12a5 10bd c54f b83c 794b 203d 3f71 d13c
000003b0: ef2a c3bc e090 16bd 4584 09bd 6e2b 643c
000003c0: e56e dd3c 23a3 383d 930e e9bc e107 5b3c
000003d0: 428b 57bc 1447 773c 85f8 3e3d 6c0d 89bc
000003e0: b6c7 c6bc 0bdc 40bd 3076 9d3c 416a 28bd
000003f0: ffc7 aabc ad56 be3d 574b 93bc 36fd 8ebc

block_1.c3_r.weight f4 [44, 38, 3, 3]
-0.02864536 0.041666437 -0.003554629 0.13289668 0.0019460215 -0.028188447 -0.05080849 0.0019181161
0.031174963 -0.01717702 -0.001763785 -0.038368743 -0.06405529 0.024988098 0.016691249 0.022754405
-0.08305128 -0.05434754 -0.024658564 0.044010345 -0.0026938142 -0.038408544 0.015960105 -0.015593045
0.051674593 -0.026751958 -0.037947882 -0.11321794 -0.042051166 -0.023771241 0.042694084 -0.0005420662
0.048531793 0.0010069164 -0.021792129 -0.051558625 -0.03986072 0.033766974 0.039261192 0.037481282
-0.001275414 -0.026973339 0.047476932 -0.026348677 -0.0061996477 0.054790568 -0.12334027 0.00051233213
-0.0067080683 0.08732731 -0.01221716 0.013803916 -0.015991678 -0.037706833 0.05132202 -0.052735385
0.0043303445 0.05001876 0.05431762 -0.018981224 0.025858784 -0.004158384 -0.049172994 -0.023012316
-0.0041311174 -0.058011197 0.010597527 -0.019445052 -0.012094795 -0.030834848 -0.037430864 -0.014017418
-0.030126428 0.10101629 -0.032088976 -0.05522055 0.021903357 0.046261314 -0.002983323 -0.0037380408
0.031782363 0.030496536 0.048836555 0.0333464 -0.029961755 -0.021359036 0.044107325 -0.042491905
0.008400817 -0.019169329 -0.008617983 0.03954083 -0.02772802 0.030533204 0.04278388 -0.024899501
-0.05100668 0.01461182 0.04486789 -0.05215967 0.13109004 -0.029883914 0.0008357694 -0.016148923
0.009510689 0.021430848 -0.048227675 -0.064294666 0.0358441 -0.0059252433 -0.016834928 -0.023540901
0.0041780504 -0.042154253 -0.034528006 0.003782863 -0.0071240077 0.04013397 0.01660023 0.017545996
0.015184303 -0.06161702 -0.03725891 -0.027293444 -0.0109957745 0.048795003 0.020566918 0.023325797
0.02648229 0.011928912 -0.011876886 0.016588585 -0.0029851187 0.02254856 -0.040673923 -0.036805846
0.096970804 0.046780232 0.0053011784 -0.055343207 -0.05361444 -0.00022368957 -0.04557395 -0.060246244
-0.026421992 0.0014650114 -0.032998666 0.042932644 0.035291407 -0.01910782 -0.04824949 -0.052859526
0.018107891 -0.026428388 -0.038143564 0.010084667 -0.09185948 0.04202297 -0.00013622837 0.023572823
-0.022528823 0.0028495311 -0.01456315 0.035649136 0.0015051083 -0.06892723 0.14499074 -0.037526637
0.011001115 -0.033824097 -0.07825564 0.016969161 0.04101315 0.05240737 0.021939771 0.039400395
-0.039059367 -0.002140919 -0.07496508 -0.003080332 0.036291115 0.04570762 -0.028587291 0.012492574
0.041643076 0.048544005 0.04259995 -0.015134273 -0.0169723 -0.059751082 0.01879785 -0.04945188
-0.03218401 0.017967187 -0.019656142 -0.045404337 -0.0091204215 -0.057622313 0.017123114 0.006999479
0.018628746 0.052890476 -0.033647522 -0.026265174 -0.10754187 -0.05467668 0.00850682 0.034291867
-0.032920707 -0.028006533 -0.031724155 -0.0004927326 -0.048049286 0.053887166 -0.00436431 -0.03574265
-0.03268295 0.029839052 -0.053684663 -0.076533936 0.0051473817 0.02271035 -0.020020906 0.04489933
-0.06318046 -0.036500372 0.05510195 0.039555386 -0.027778316 0.025577147 0.0015314545 0.065686725
-0.042521816 -0.021982597 0.015694488 0.1746678 0.042110756 -0.04796161 -0.068187274 -0.07654023
0.016677918 0.050777245 -0.022686366 0.016362658 0.08793187 -0.026247421 -0.0052568777 0.11886609
0.027107278 0.026347678 0.083107665 -0.024822269 0.071660034 0.045144074 0.033263538 0.028012618
00000000: ada9 eabc 6daa 2a3d c7f4 68bb 1116 083e
00000010: a511 ff3a 75eb e6bc 901c 50bd 4c69 fb3a
00000020: a362 ff3c d2b6 8cbc ce2e e7ba 8b28 1dbd
00000030: 6b2f 83bd d7b3 cc3c 16bc 883c 7267 ba3c
00000040: ca16 aabd 879b 5ebd c200 cabc 3144 343d
00000050: b48a 30bb 4752 1dbd c4be 823c f979 7fbc
00000060: bda8 533d ec26 dbbc 3d6f 1bbd cfde e7bd
00000070: d83d 2cbd e8bb c2bc fedf 2e3d 7219 0eba
00000080: 46c9 463d 82fa 833a 6885 b2bc 232f 53bd
00000090: ff44 23bd 3d4f 0a3d 58d0 203d f985 193d
000000a0: cb2b a7ba 31f7 dcbc 2c77 423d 2ed9 d7bc
000000b0: 6a26 cbbb 136c 603d d399 fcbd 074e 063a
000000c0: 5bcf dbbb a9d8 b23d 7c2a 48bc d229 623c
000000d0: fb00 83bc 7b72 1abd 0a37 523d 0f01 58bd
000000e0: 90e5 8d3b 79e0 4c3d 277c 5e3d 837e 9bbc
000000f0: cdd5 d33c 0e43 88bb 9f69 49bd 5384 bcbc
00000100: 535e 87bb 269d 6dbd 40a1 2d3c 3b4b 9fbc
00000110: 3f29 46bc 5d99 fcbc 1b51 19bd 50a9 65bc
00000120: b3cb f6bc a1e1 ce3d bb6f 03bd f22e 62bd
00000130: ab6e b33c 817c 3d3d db83 43bb ebf9 74bb
00000140: 392e 023d dfd3 f93c d708 483d 3c96 083d
00000150: 5b72 f5bc 25f9 aebc e2a9 343d fe0b 2ebd
00000160: 95a3 093c ff08 9dbc 7132 0dbc 91f5 213d
00000170: df25 e3bc c520 fa3c 263e 2f3d 0afa cbbc
00000180: 61ec 50bd 6a66 6f3c 65c7 373d 61a5 55bd
00000190: 783c 063e 1ccf f4bc 8917 5b3a bf4a 84bc
000001a0: b9d2 1b3c bf8f af3c 628a 45bd ecac 83bd
000001b0: 43d1 123d 8b28 c2bb 67e9 89bc d9d8 c0bc
000001c0: 07e8 883b f0a9 2cbd 3d6d 0dbd e9e9 773b
000001d0: 8270 e9bb 8563 243d 35fd 873c 9fbc 8f3c
000001e0: 95c7 783c 2162 7cbd cc9c 18bd 8096 dfbc
000001f0: 9f27 34bc 45dd 473d f47b a83c be15 bf3c
00000200: 63f1 d83c 7c71 433c 4597 42bc c9e4 873c
00000210: fba1 43bb c2b7 b83c b399 26bd bac1 16bd
00000220: a198 c63d a19c 3f3d 82b5 ad3b 8faf 62bd
00000230: d19a 5bbd 368e 6ab9 c0ab 3abd c4c4 76bd
00000240: ef72 d8bc a005 c03a 9c29 07bd 24da 2f3d
00000250: b98d 103d 0188 9cbc 42a1 45bd 3b83 58bd
00000260: 0057 943c 5980 d8bc 6d3c 1cbd 293a 253c
00000270: d320 bcbd 4720 2c3d 86d8 0eb9 cb1b c13c
00000280: 5e8e b8bc 33bf 3a3b 479a 6ebc d404 123d
00000290: 0e47 c53a b829 8dbd 7478 143e 88b5 19bd
000002a0: 053e 343c 238b 0abd 7e44 a0bd e902 8b3c
000002b0: 68fd 273d 1ca9 563d 09bb b33c 4f62 213d
000002c0: b7fc 1fbd a94e 0cbb 4b87 99bd 65df 49bb
000002d0: fea5 143d ea37 3b3d e52f eabc a7ad 4c3c
000002e0: ee91 2a3d 14d6 463d 497d 2e3d bef5 77bc
000002f0: 7e09 8bbc 8dbd 74bd f3fd 993c 0e8e 4abd
00000300: 61d3 03bd ec2f 933c eb05 a1bc e6f9 39bd
00000310: d26d 15bc 6005 6cbd c645 8c3c e35b e53b
00000320: 509b 983c afa3 583d fcd1 09bd 102a d7bc
00000330: e93e dcbd a8f4 5fbd 3060 0b3c a175 0c3d
00000340: ddd7 06bd f56d e5bc 30f1 01bd ba2a 01ba
00000350: 54cf 44bd cab8 5c3d 7c02 8fbb e366 12bd
00000360: 8fde 05bd 0771 f43c 73e4 5bbd d3bd 9cbd
00000370: 5eab a83b 0e0b ba3c e202 a4bc 5ce8 373d
00000380: c264 81bd 6a81 15bd 95b2 613d d404 223d
00000390: 5a8f e3bc 2a87 d13c 16bb c83a c386 863d
000003a0: 5b2b 2ebd d914 b4bc ba91 803c 1edc 323e
000003b0: 547c 2c3d 6573 44bd c5a5 8bbd 20c1 9cbd
000003c0: 21a0 883c cdfb 4f3d c2d8 b9bc fb0a 863c
000003d0: a015 b43d d504 d7bc e341 acbb 1170 f33d
000003e0: 1510 de3c 16d7 d73c 5a34 aa3d 1258 cbbc
000003f0: 7fc2 923d fee8 383d 593f 083d b87a e53c

block_1.c5.weight f4 [44, 44, 1, 1]
0.058520865 -0.1271003 0.028419042 -0.034548976 -0.07315729 -0.0737221 0.14062302 0.00016172545
-0.18963905 -0.07082551 0.1546111 -0.1429315 -0.048320334 -0.0030921442 0.15727673 0.1277444
-0.09902931 0.16296977 0.11690215 -0.017481375 -0.049168497 -0.018907681 0.17720345 -0.015727002
-0.08760866 -0.14837226 0.03547245 -0.03956032 -0.15176256 -0.0625965 0.071638875 0.0014718589
0.10919966 -0.1259562 -0.006845807 0.15589894 -0.08228953 -0.0044462723 0.08699358 0.14822018
-0.12567852 0.1427612 -0.066265464 -0.05387012 0.006894018 -0.08714852 0.13259812 -0.089021906
0.24424106 -0.070440836 0.13898994 -0.12631075 -0.09929729 -0.08999717 0.1624351 0.1550928
0.089086354 0.0061592488 0.13967918 0.0260562 -0.1264838 0.033880677 0.03433782 0.04410536
0.0130334655 0.048737332 0.067578204 0.031759277 0.0067928033 -0.04095575 0.13190988 -0.045452368
0.13294002 -0.04354692 -0.07566727 -0.13894793 -0.057058636 -0.045940004 0.035895918 0.0034909965
-0.022180554 0.052533727 -0.08340812 -0.076345496 -0.11457255 -0.037747014 0.0045570107 0.061519433
0.034310013 0.06475729 0.076715454 -0.02044918 -0.078504875 -0.051584825 -0.08707725 0.15550126
0.08018425 0.04532059 -0.08951073 0.0948032 -0.09310906 0.037239492 0.11645771 0.026578428
0.13947123 0.10576599 -0.10568326 -0.1639999 -0.0486975 0.09800445 0.08640518 -0.12320414
-0.09018267 -0.124260105 -0.010507344 0.153578 -0.0100488765 0.0026675835 -0.043129556 0.009418819
0.12733167 -0.08771308 -0.09192562 0.10553588 -0.0747264 0.12373521 -0.045122348 -0.12314183
-0.12763159 -0.09634872 0.13018365 0.09649273 0.14922692 0.13994385 0.055823464 -0.008045233
0.046844885 -0.06618646 0.05573219 0.12449833 -0.1223369 -0.03172491 0.100586705 -0.12610064
-0.06355542 -0.13310973 0.09567003 -0.09199997 -0.06766841 -0.074223176 -0.009408754 0.109875254
-0.09138476 0.012374431 -0.048028685 0.07719523 -0.042607646 -0.08557395 0.018310366 0.118691795
0.17698172 0.12185106 0.043902583 0.111470155 0.022618013 0.051377505 -0.18570884 -0.13408029
-0.14748955 0.11655496 0.14597502 -0.09670062 0.08684697 -0.037322972 0.12555522 -0.06449701
-0.08779261 -0.084038675 -0.105891466 0.06613987 -0.0036319494 -0.060945004 -0.053181056 -0.12198464
0.088610634 -0.11067503 0.051525936 0.0826919 -0.093228064 0.019277237 0.08626764 -0.097757764
0.101437815 -0.007589147 0.084409975 -0.050789364 -0.08575547 -0.025549257 -0.011803067 0.06968203
0.17871742 0.056985695 0.080137074 -0.15996405 0.15180181 -0.02468017 -0.039458327 -0.01643511
0.058360696 0.11056827 0.17400649 0.17983069 0.035801932 0.1551814 -0.095191725 0.13855515
0.0692059 -0.12977198 -0.046916157 0.16068907 -0.070957705 -0.08115956 0.10634306 -0.15197967
-0.27697057 0.16331086 0.11392085 0.05886844 0.10344409 0.021186944 0.15548982 0.0285938
-0.08271773 -0.17911516 -0.045543313 -0.028292803 -0.06893106 -0.10340779 0.11687698 -0.11991537
-0.02755971 0.021072743 0.20535953 0.024250932 -0.09885933 -0.018696414 -0.059441574 -0.1601275
-0.02466474 -0.07633454 -0.034249578 -0.10335826 -0.12319585 0.08519485 0.17019807 -0.07013196
00000000: 93b3 6f3d 9526 02be 0dcf e83c 3a83 0dbd
00000010: 7dd3 95bd 9dfb 96bd 7bff 0f3e d894 2939
00000020: bd30 42be f70c 91bd 5f52 1e3e a35c 12be
00000030: 8beb 45bd 92a5 4abb 270d 213e 6ecf 023e
00000040: e1cf cabd 8ce1 263e 656a ef3d 1a35 8fbc
00000050: e864 49bd 48e4 9abc d274 353e ead5 80bc
00000060: 2b6c b3bd e6ee 17be 8f4b 113d 010a 22bd
00000070: a567 1bbe 9832 80bd 67b7 923d 64eb c03a
00000080: 12a4 df3d a9fa 00be cb52 e0bb f9a3 1f3e
00000090: 6a87 a8bd 09b2 91bb b129 b23d 08c7 173e
000000a0: dfb1 00be fe2f 123e 30b6 87bd eaa6 5cbd
000000b0: 37e7 e13b ec7a b2bd cdc7 073e 1e51 b6bd
000000c0: 541a 7a3e 4943 90bd 6153 0e3e 9b57 01be
000000d0: 615c cbbd 7050 b8bd 6355 263e a6d0 1e3e
000000e0: e872 b63d 86d3 c93b 0f08 0f3e d073 d53c
000000f0: f884 01be 77c6 0a3d d0a5 0c3d d2a7 343d
00000100: 518a 553c cca0 473d 7166 8a3d 0416 023d
00000110: 2a96 de3b 37c1 27bd 6213 073e 432c 3abd
00000120: 6e21 083e 415e 32bd 71f7 9abd 5e48 0ebe
00000130: 51b6 69bd 962b 3cbd 9907 133d 34c9 643b
00000140: feb3 b5bc 9b2d 573d e0d1 aabd 075b 9cbd
00000150: 03a5 eabd 9d9c 1abd fa52 953b cdfb 7b3d
00000160: a888 0c3d 789f 843d fe1c 9d3d 0a85 a7bc
00000170: 2ac7 a0bd 9c4a 53bd 8f55 b2bd b93b 1f3e
00000180: a437 a43d 15a2 393d 6751 b7bd 2e28 c23d
00000190: f6af bebd 7088 183d 6181 ee3d 01bb d93c
000001a0: 8cd1 0e3e d79b d83d 7770 d8bd 97ef 27be
000001b0: 0877 47bd 8fb6 c83d 33f5 b03d 7452 fcbd
000001c0: b1b1 b8bd 157c febd ff26 2cbc 8d43 1d3e
000001d0: 0ba4 24bc a0d2 2e3b 9ea8 30bd 6451 1a3c
000001e0: 3c63 023e eaa2 b3bd 8043 bcbd 3223 d83d
000001f0: 280a 99bd e368 fd3d 36d2 38bd c931 fcbd
00000200: dbb1 02be 7a52 c5bd dd4e 053e fb9d c53d
00000210: f1ce 183e 714d 0f3e 25a7 643d 27d0 03bc
00000220: 6ce0 3f3d c48c 87bd 7047 643d fbf8 fe3d
00000230: c58b fabd fbf1 01bd 6700 ce3d 8720 01be
00000240: 5829 82bd eb4d 08be a6ee c33d 7b6a bcbd
00000250: bc95 8abd 5202 98bd 2d27 1abc 4706 e13d
00000260: ef27 bbbd 20be 4a3c bab9 44bd 8818 9e3d
00000270: 5b85 2ebd 6541 afbd 9fff 953c af14 f33d
00000280: b23a 353e 0c8d f93d 32d3 333d 774a e43d
00000290: 6949 b93c 3871 523d 752a 3ebe 584c 09be
000002a0: 8007 17be 5eb4 ee3d 7a7a 153e fa0a c6bd
000002b0: d3dc b13d f9df 18bd 8c91 003e 0217 84bd
000002c0: 9dcc b3bd 781c acbd a0dd d8bd 5774 873d
000002d0: 0006 6ebb 78a1 79bd 61d4 59bd 15d3 f9bd
000002e0: 7e79 b53d 97a9 e2bd dc0c 533d 5f5a a93d
000002f0: 5bee bebd 4ceb 9d3c 17ad b03d 3935 c8bd
00000300: a1be cf3d 61ae f8bb 23df ac3d 8208 50bd
00000310: 90a0 afbd ad4c d1bc a761 41bc 74b5 8e3d
00000320: b301 373e d569 693d e81e a43d 9ecd 23be
00000330: ef71 1b3e 112e cabc 0e9f 21bd eca2 86bc
00000340: a00b 6f3d 9e71 e23d c22e 323e 8925 383e
00000350: 0ca5 123d dfe7 1e3e e1f3 c2bd 67e1 0d3e
00000360: d3bb 8d3d f2e2 04be 282b 40bd ad8b 243e
00000370: 4652 91bd fc36 a6bd 64ca d93d 8fa0 1bbe
00000380: 16cf 8dbe f63a 273e 564f e93d 0920 713d
00000390: 7fda d33d 3e90 ad3c b938 1f3e 8b3d ea3c
000003a0: ea67 a9bd f769 37be a08b 3abd 4fc6 e7bc
000003b0: ba2b 8dbd 77c7 d3bd 335d ef3d 3196 f5bd
000003c0: e7c4 e1bc bfa0 ac3c c549 523e e4a9 c63c
000003d0: c376 cabd 3929 99bc 0279 73bd 77f8 23be
000003e0: b50d cabc 4955 9cbd 4949 0cbd 7fad d3bd
000003f0: 1b4e fcbd a37a ae3d 6748 2e3e 58a1 8fbd

block_1.esa.conv1.weight f4 [16, 44, 1, 1]
0.031064216 0.08063175 0.0013030876 -0.011345965 -0.10435039 0.13509463 0.13968329 0.18202047
-0.19552414 -0.10927869 -0.13152653 0.07472647 0.15406734 -0.14959395 0.042611122 0.22902521
-0.116927 -0.14387882 -0.04039955 -0.033340428 -0.06646612 0.053659577 0.0940662 -0.09441728
0.028780336 -0.052168295 0.0082964795 -0.13947394 -0.014754085 0.043610122 -0.20647603 0.020556044
0.101249635 -0.16178247 -0.079590455 -0.067785494 0.029050447 -0.04822987 -0.015097344 -0.12595871
-0.071155876 -0.045723002 -0.12447343 0.113553084 -0.038136043 0.081573784 -0.15191907 -0.09149194
-0.096418515 0.1419212 -0.0013586803 0.16082047 -0.09621665 0.11126782 -0.12317843 -0.06817581
0.09143207 -0.17258804 0.13646652 -0.10073902 -0.003567716 0.057627194 0.09244793 -0.07305742
0.14358364 0.09060264 -0.028679885 0.002237039 0.009920116 -0.12086014 -0.10695597 0.122869186
0.18856385 0.060635835 0.074213564 -0.051028833 -0.13140604 -0.12185082 -0.085439056 -0.06863202
0.16710153 -0.046549205 0.018723136 -0.15834257 0.18819888 -0.067131735 0.020468164 0.07787647
0.12245464 -0.059505317 -0.06910559 0.1636759 -0.09742243 0.11963141 -0.11950584 -0.07805648
0.0385946 0.1283266 0.14979868 0.016327022 -0.01927289 0.1297349 -0.034305975 0.063114926
-0.06843015 0.054756057 0.052302457 -0.17066447 0.06927386 -0.024221836 -0.08307407 0.07082608
-0.048348665 -0.03263395 0.037549812 0.08995779 -0.042162694 -0.13919276 0.077186346 0.13286072
-0.061958674 -0.10363616 0.03471806 0.062340718 0.076349415 0.103288606 -0.05349268 0.14955321
-0.12802155 -0.077972166 0.09092161 -0.080091245 0.0007112517 0.088560656 -0.056028217 0.081231914
-0.11720773 -0.11252362 0.030308975 -0.121872954 0.09577705 -0.013058264 0.08934709 -0.11521743
0.004877137 -0.0855312 -0.09262164 0.12548661 0.09601632 0.012104387 -0.13462654 -0.08026327
-0.1524727 -0.14576411 -0.07042539 -0.11506135 -0.03160083 0.05445595 0.0859585 0.14089558
-0.041908253 0.0064382325 0.07201389 0.11730593 -0.028770292 -0.09259016 0.040664233 -0.02150997
-0.022799596 0.010395901 0.1447413 0.1203785 -0.16218966 0.0713428 -0.031510126 0.005609548
-0.058515653 0.10034942 0.097038455 -0.0015137506 0.15679985 0.12840432 -0.088271186 -0.15726803
0.11484126 0.094521746 0.03502097 -0.03338242 -0.04177715 -0.004473651 0.06190181 0.09802282
0.0012933702 -0.06302901 -0.029422635 -0.041785862 0.13387948 -0.12345612 -0.08302591 0.016132519
0.042141844 0.08695761 -0.036589883 0.004075186 0.009795816 0.031227004 -0.13940528 -0.040984876
-0.09300718 0.08283662 0.1486443 -0.047331914 -0.17165966 -0.14020593 0.05644721 -0.060161468
0.06529454 -0.14434 0.16884318 -0.09995849 0.061706882 -0.17436622 -0.11221674 -0.068591
0.12075705 -0.101903714 -0.033186022 0.09692601 -0.12919301 -0.01590731 0.08119754 -0.09565268
0.08185173 0.050385147 -0.02803728 0.10590722 0.05728628 0.043205444 0.0763021 0.11550604
0.07404769 0.12544341 0.08870019 -0.031877454 0.045595802 0.103508614 0.118256725 -0.011871827
-0.052954637 0.088510856 -0.14179173 0.069453955 -0.14528513 0.0022467845 -0.097477496 0.15340917
00000000: 627a fe3c 4222 a53d 5dcc aa3a 6de4 39bc
00000010: a8b5 d5bd 3f56 0a3e 2309 0f3e 9363 3a3e
00000020: 7b37 48be 81cd dfbd e4ae 06be 310a 993d
00000030: d4c3 1d3e 282f 19be 0089 2e3d 9685 6a3e
00000040: 6c77 efbd f854 13be 007a 25bd f98f 08bd
00000050: 641f 88bd 25ca 5b3d c8a5 c03d d95d c1bd
00000060: bdc4 eb3c 6cae 55bd f5ed 073c 42d2 0ebe
00000070: 1ebb 71bc 87a0 323d 746e 53be 2665 a83c
00000080: f85b cf3d 4eaa 25be 5200 a3bd 1fd3 8abd
00000090: 34fb ed3c af8c 45bd da5a 77bc 52fb 00be
000000a0: 2cba 91bd 0b48 3bbd edeb febd 858e e83d
000000b0: 8a34 1cbd 2810 a73d ac90 1bbe 2060 bbbd
000000c0: 1277 c5bd cb53 113e bf15 b2ba 1fae 243e
000000d0: 3c0d c5bd 62e0 e33d f944 fcbd c29f 8bbd
000000e0: bd40 bb3d ebba 30be e1bd 0b3e 4250 cebd
000000f0: 58d0 69bb 7e0a 6c3d 5755 bd3d 219f 95bd
00000100: 9707 133e e08d b93d 14f2 eabc 499b 123b
00000110: fb87 223c 8585 f7bd bb0b dbbd d7a2 fb3d
00000120: e216 413e 485d 783d 48fd 973d 9c03 51bd
00000130: 4e8f 06be ec8c f9bd acfa aebd f28e 8cbd
00000140: aa1c 2b3e 61aa 3ebd 4361 993c 8e24 22be
00000150: 35b7 403e 5d7c 89bd daac a73c b37d 9f3d
00000160: 80c9 fa3d d9bb 73bd 3b87 8dbd a89a 273e
00000170: 6985 c7bd 5001 f53d 7abf f4bd 13dc 9fbd
00000180: 5f15 1e3d 0c68 033e d364 193e 3fc0 853c
00000190: 2ee2 9dbc 3ad9 043e 6c84 0cbd 6642 813d
000001a0: 1b25 8cbd e347 603d 1a3b 563d abc2 2ebe
000001b0: 74df 8d3d df6c c6bc bd22 aabd 440d 913d
000001c0: 4009 46bd 2dab 05bd d5cd 193d ca3b b83d
000001d0: cab2 2cbd 8c88 0ebe e013 9e3d a40c 083e
000001e0: 61c8 7dbd 323f d4bd 8634 0e3d fb58 7f3d
000001f0: 155d 9c3d fa88 d33d 241b 5bbd 7a24 193e
00000200: 1518 03be dfaf 9fbd 1c35 ba3d e106 a4bd
00000210: 4b73 3a3a 4a5f b53d d87d 65bd eb5c a63d
00000220: 9b0a f0bd c972 e6bd 874a f83c 8798 f9bd
00000230: c226 c43d 54f2 55bc 9bfb b63d 1ef7 ebbd
00000240: 64d0 9f3b fb2a afbd 6ab0 bdbd 907f 003e
00000250: 34a4 c43d 7b51 463c 8adb 09be 1261 a4bd
00000260: ce21 1cbe 3043 15be 303b 90bd 49a5 ebbd
00000270: df6f 01bd 340d 5f3d 030b b03d ee46 103e
00000280: fda7 2bbd cff7 d23b 057c 933d 173e f03d
00000290: adaf ebbc e99f bdbd 8a8f 263d ad35 b0bc
000002a0: 38c6 babc 9253 2a3c 1037 143e 0189 f63d
000002b0: 0c15 26be 2d1c 923d c310 01bd 4dd0 b73b
000002c0: 1cae 6fbd ff83 cd3d 19bc c63d 0b69 c6ba
000002d0: 2490 203e 6c7c 033e 86c7 b4bd df0a 21be
000002e0: e531 eb3d 9e94 c13d 2672 0f3d 01bc 08bd
000002f0: 841e 2bbd b497 92bb c18c 7d3d 30c0 c83d
00000300: 4d86 a93a 5b15 81bd bd07 f1bc a727 2bbd
00000310: b417 093e 90d6 fcbd 7d09 aabd 5828 843c
00000320: ed9c 2c3d d516 b23d 46df 15bd 2389 853b
00000330: a17e 203c c6cf ff3c 42c0 0ebe c2df 27bd
00000340: 8c7a bebd 3fa6 a93d 3636 183e 1cdf 41bd
00000350: 8dc7 2fbe 2592 0fbe 3135 673d df6b 76bd
00000360: 25b9 853d ddcd 13be 3ae5 2c3e 09b7 ccbd
00000370: 5bc0 7c3d 0f8d 32be e4d1 e5bd 7079 8cbd
00000380: 794f f73d e5b2 d0bd 11ee 07bd 2581 c63d
00000390: 2c4b 04be 0c50 82bc e54a a63d 8de5 c3bd
000003a0: e1a1 a73d a860 4e3d 70ae e5bc e2e5 d83d
000003b0: 05a5 6a3d 31f8 303d 4744 9c3d 6e8e ec3d
000003c0: 51a6 973d 3d74 003e 72a8 b53d ef91 02bd
000003d0: aac2 3a3d 53fc d33d 9530 f23d 0d82 42bc
000003e0: f6e6 58bd 2e45 b53d da31 11be e03d 8e3d
000003f0: a0c5 14be ca3e 133b 48a2 c7bd 4b17 1d3e

block_1.esa.conv1.bias f4 [16]
0.042876236 -0.17297193 0.029933698 -0.04906197 -0.20797199 0.039237835 -0.122365296 0.1758118
-0.123707324 -0.17581536 0.017021758 -0.10287529 0.19605502 -0.067883946 -0.2269785 0.08046367
00000000: fe9e 2f3d 8e1f 31be 8437 f53c 34f5 48bd
00000010: 9cf6 54be dab7 203d a89a fabd 0208 343e
00000020: 445a fdbd f108 34be 3771 8b3c 48b0 d2bd
00000030: a6c2 483e bd06 8bbd 0d6d 68be 23ca a43d

block_1.esa.conv_f.weight f4 [16, 16, 1, 1]
-0.031194165 0.04783041 0.20828561 -0.07032562 0.15721156 -0.04345937 -0.21800815 -0.11629399
-0.06319985 -0.113390915 0.13114987 -0.06669205 -0.17917207 0.024717094 -0.0999812 -0.025638618
-0.1122948 -0.20950156 0.115222916 0.013643923 0.12794125 -0.12824076 -0.1901409 0.279821
-0.081175715 0.18391486 0.023899633 -0.21095385 -0.18324508 -0.17355254 -0.11301411 -0.0121304775
0.13913228 0.26671097 0.097522035 -0.049541075 0.23421021 -0.14707765 -0.026019651 -0.17305034
-0.18804243 -0.18723038 -0.18185382 0.085577354 0.13981776 0.24005915 0.10634886 0.06949988
0.09094684 -0.07371019 -0.038077075 -0.20353907 -0.06351513 0.22258474 -0.16058788 -0.06954997
-0.06413633 -0.11423887 -0.043989144 -0.10622814 0.007126442 -0.096315496 0.08724776 -0.19107807
-0.24017963 -0.14214347 0.26397935 -0.11147741 0.14341506 -0.10950412 -0.22258647 0.20058233
0.12305303 0.09593676 -0.06390289 -0.0077646845 -0.021943428 0.20587708 -0.01045006 -0.21723406
-0.3130784 -0.2691827 -0.0973619 0.067601085 0.023888482 -0.09723428 -0.22296546 0.04748165
-0.017135877 0.2089865 -0.06579596 -0.13215674 -0.024043877 -0.29226017 -0.23731042 -0.121039025
0.17278647 -0.07506974 -0.24774383 -0.20450133 -0.1494688 0.040095888 0.07068527 0.051885568
-0.056328483 -0.14559872 -0.21805014 0.10124705 0.022052975 -0.019375904 -0.17477491 0.2177522
0.13724379 -0.2178985 0.19496572 0.04850507 0.09148717 0.11860259 -0.064787254 -0.05546089
0.16464213 -0.090106465 0.15572853 -0.2531833 0.09805711 -0.18201154 -0.20454891 -0.053755756
-0.046709683 0.013169739 -0.12950097 -0.12497103 0.23746872 0.12262685 0.1209775 0.0562215
0.15864645 0.012385788 0.025614563 -0.030060899 -0.17026962 -0.1839038 -0.23981874 0.028368626
0.19398113 -0.17756288 0.16083607 -0.20186026 -0.06324092 0.11316157 0.17290987 0.14170983
0.05152892 -0.25374594 -0.16491896 -0.0039386656 0.04428285 -0.106629804 0.14093246 -0.1555035
0.0076115127 -0.01169392 -0.019339627 -0.02787797 -0.087169915 -0.16667448 0.121836625 0.15239462
0.096876815 0.2389271 0.18411303 0.09311076 -0.21705928 0.090944074 0.02985598 -0.23497437
0.30222705 -0.042128302 -0.32494724 -0.07712152 0.11924408 0.0015307962 -0.107725926 0.035647344
0.12018143 0.0013099532 -0.15104747 -0.0038953598 0.16379315 0.054794993 0.17664777 -0.045255505
-0.09778243 -0.22468017 -0.045141075 0.20887864 -0.028165864 -0.111522205 -0.14966018 0.09415275
-0.2398611 0.1143172 -0.14592874 -0.21863018 0.052596483 0.01490026 -0.015079974 -0.13046005
-0.08755084 0.29301205 -0.09618885 0.08796502 -0.26352894 -0.066166036 0.0838529 -0.25800717
-0.101598844 -0.016649742 0.07424608 0.21036139 0.23127398 -0.08658279 0.051448565 0.2278579
-0.24825437 -0.10846002 0.13954742 0.041308127 -0.026435731 -0.19060184 -0.09112347 0.11265928
-0.06470952 0.09925469 0.21159777 0.005109301 -0.048268415 0.10469881 -0.0669226 -0.055230793
0.19426085 -0.051010385 0.13327344 0.05887425 0.13830833 0.05895853 -0.20619975 0.060418494
-0.19155018 -0.049749848 0.07776125 0.22166613 -0.12264082 -0.09595803 -0.023135042 0.16789357
00000000: e88a ffbc d2e9 433d d348 553e e106 90bd
00000010: 11fc 203e 7402 32bd 873d 5fbe 8b2b eebd
00000020: ec6e 81bd 7f39 e8bd 274c 063e d795 88bd
00000030: e278 37be 817b ca3c f2c2 ccbd 1408 d2bc
00000040: d1fa e5bd 9487 56be fef9 eb3d c38a 5f3c
00000050: 0803 033e 8c51 03be 4cb4 42be b344 8f3e
00000060: 743f a6bd 2d54 3c3e 2ac9 c33c 4904 58be
00000070: 99a4 3bbe c2b7 31be f173 e7bd e9be 46bc
00000080: b178 0e3e 578e 883e a2b9 c73d 95eb 4abd
00000090: cdd4 6f3e 869b 16be 2a27 d5bc 1c34 31be
000000a0: 328e 40be 52b9 3fbe e337 3abe 2e43 af3d
000000b0: 632c 0f3e 11d2 753e 6ecd d93d f455 8e3d
000000c0: 5642 ba3d 5ef5 96bd b5f6 1bbd 8c6c 50be
000000d0: 3814 82bd 41ed 633e 2671 24be 3770 8ebd
000000e0: e859 83bd 12f6 e9bd f62d 34bd 248e d9bd
000000f0: ee84 e93b 0f41 c5bd f4ae b23d f8a9 43be
00000100: a6f1 75be 0f8e 11be 4d28 873e 454e e4bd
00000110: 66db 123e b243 e0bd b5ed 63be 7465 4d3e
00000120: 3a03 fc3d 7e7a c43d 85df 82bd e56e febb
00000130: b4c2 b3bc 71d1 523e ba36 2bbc 9b72 5ebe
00000140: d04b a0be 51d2 89be ad65 c7bd 7072 8a3d
00000150: c7b1 c33c c422 c7bd 0f51 64be 1e7c 423d
00000160: 8a60 8cbc 8f00 563e 08c0 86bd 1954 07be
00000170: aaf7 c4bc 20a3 95be 8101 73be 4fe3 f7bd
00000180: f0ee 303e 2abe 99bd 8fb0 7dbe cc68 51be
00000190: 590e 19be 963b 243d 70c3 903d f685 543d
000001a0: b2b8 66bd d517 15be 8948 5fbe 9d5a cf3d
000001b0: 71a8 b43c 37ba 9ebc 32f8 32be 6ffa 5e3e
000001c0: a389 0c3e c920 5fbe 18a5 473e 41ad 463d
000001d0: a05d bb3d eae5 f23d 2eaf 84bd f52a 63bd
000001e0: f297 283e bd89 b8bd 4d77 1f3e 3ea1 81be
000001f0: 2bd2 c83d 3c61 3abe 4575 51be ff2e 5cbd
00000200: a752 3fbd e4c5 573c e79b 04be d0f0 ffbd
00000210: 002b 733e c923 fb3d 0dc3 f73d 8448 663d
00000220: 3774 223e c3ed 4a3c a2d5 d13c 4642 f6bc
00000230: 295b 2ebe 4751 3cbe 0b93 75be 5265 e83c
00000240: fda2 463e 0bd3 35be 36b2 243e 75b4 4ebe
00000250: 7584 81bd 41c1 e73d 490f 313e 621c 113e
00000260: fd0f 533d fdea 81be 84e0 28be ec0f 81bb
00000270: ef61 353d ba60 dabd 9950 103e 4f3c 1fbe
00000280: ff69 f93b db97 3fbc 236e 9ebc 5760 e4bc
00000290: 2486 b2bd b7ac 2abe 7b85 f93d 560d 1c3e
000002a0: 5a67 c63d 4ea9 743e 2088 3c3e dbb0 be3d
000002b0: ca44 5ebe e340 ba3d 8794 f43c 1f9d 70be
000002c0: 81bd 9a3e ba8e 2cbd 7c5f a6be e3f1 9dbd
000002d0: 3d36 f43d ffa4 c83a 699f dcbd f302 123d
000002e0: ae21 f63d bcb2 ab3a 30ac 1abe 4b49 7fbb
000002f0: 64b9 273e b770 603d 27e3 343e d65d 39bd
00000300: 2842 c8bd 8f12 66be d9e5 38bd 48e4 553e
00000310: 19bc e6bc c165 e4bd 8540 19be 28d3 c03d
00000320: 269e 75be 231f ea3d 586e 15be 97e0 5fbe
00000330: 696f 573d 3820 743c ff11 77bc 5297 05be
00000340: db4d b3bd ad05 963e a9fe c4bd 0127 b43d
00000350: 44ed 86be 0f82 87bd 12bb ab3d 8419 84be
00000360: 0e13 d0bd 0a65 88bc 540e 983d fa68 573e
00000370: 16d3 6c3e 5152 b1bd bbbb 523d 9553 693e
00000380: 6536 7ebe 4920 debd 85e5 0e3e b632 293d
00000390: bf8f d8bc 212d 43be f19e babd e9b9 e63d
000003a0: 6d86 84bd 0b46 cb3d 16ad 583e ec6b a73b
000003b0: 1ab5 45bd 546c d63d b70e 89bd af39 62bd
000003c0: 51ec 463e 44f0 50bd d578 083e 2026 713d
000003d0: b3a0 0d3e 807e 713d 0726 53be 6279 773d
000003e0: bb25 44be 7fc6 4bbd 4a41 9f3d 72fc 623e
000003f0: 1c2b fbbd a585 c4bd b385 bdbc 4bec 2b3e

block_1.esa.conv_f.bias f4 [16]
-0.21034732 -0.06211673 -0.25298372 -0.15181777 0.15315264 0.17154099 -0.23591627 0.18252398
0.06865222 -0.0042074556 -0.0098464675 0.057050806 -0.19701986 0.18572785 0.14164174 0.22348061
00000000: 4a65 57be 1d6e 7ebd 1587 81be 1e76 1bbe
00000010: 0cd4 1c3e 71a8 2f3e 0994 71be 91e7 3a3e
00000020: 8999 8c3d b2de 89bb 1453 21bc 1bae 693d
00000030: 93bf 49be 712f 3e3e 880a 113e 1ad8 643e
